…
2021-12-13 14:33:26,999 args = Namespace(batch_size=1024, epochs=240, eval=False, eval_resume='./checkpoint.pth.tar', gpu=7, grad_clip=5.0, label_smooth=0.1, learning_rate=0.5, local_rank=7, model_id='3 -1 0 4 0 -1 -1 0 4 -1 4 4 1 4 2 0 0 4 0 2 2', momentum=0.9, report_freq=100, save='eval-SPOS', seed=0, test_dir='/mnt/lustre/lichuming/0chen/Image-pytorch/val', total_iters=300000, train_dir='/mnt/lustre/lichuming/0chen/Image-pytorch/train', weight_decay=4e-05)
2021-12-13 14:35:20,736 rngs:[3, -1, 0, 4, 0, -1, -1, 0, 4, -1, 4, 4, 1, 4, 2, 0, 0, 4, 0, 2, 2], arch:['<bound method Module.type of InvertedResidual(\n  (conv): Sequential(\n    (0): Conv2d(24, 144, kernel_size=(1, 1), stride=(1, 1), bias=False)\n    (1): BatchNorm2d(144, eps=1e-05, momentum=0.1, affine=True, track_running_stats=True)\n    (2): ReLU6(inplace=True)\n    (3): Conv2d(144, 144, kernel_size=(5, 5), stride=(2, 2), padding=(2, 2), groups=144, bias=False)\n    (4): BatchNorm2d(144, eps=1e-05, momentum=0.1, affine=True, track_running_stats=True)\n    (5): ReLU6(inplace=True)\n    (6): Conv2d(144, 32, kernel_size=(1, 1), stride=(1, 1), bias=False)\n    (7): BatchNorm2d(32, eps=1e-05, momentum=0.1, affine=True, track_running_stats=True)\n  )\n)>(reduce, oup=32)', '<bound method Module.type of InvertedResidual(\n  (conv): Sequential(\n    (0): Conv2d(32, 96, kernel_size=(1, 1), stride=(1, 1), bias=False)\n    (1): BatchNorm2d(96, eps=1e-05, momentum=0.1, affine=True, track_running_stats=True)\n    (2): ReLU6(inplace=True)\n    (3): Conv2d(96, 96, kernel_size=(3, 3), stride=(1, 1), padding=(1, 1), groups=96, bias=False)\n    (4): BatchNorm2d(96, eps=1e-05, momentum=0.1, affine=True, track_running_stats=True)\n    (5): ReLU6(inplace=True)\n    (6): Conv2d(96, 32, kernel_size=(1, 1), stride=(1, 1), bias=False)\n    (7): BatchNorm2d(32, eps=1e-05, momentum=0.1, affine=True, track_running_stats=True)\n  )\n)>(normal, oup=32)', '<bound method Module.type of InvertedResidual(\n  (conv): Sequential(\n    (0): Conv2d(32, 96, kernel_size=(1, 1), stride=(1, 1), bias=False)\n    (1): BatchNorm2d(96, eps=1e-05, momentum=0.1, affine=True, track_running_stats=True)\n    (2): ReLU6(inplace=True)\n    (3): Conv2d(96, 96, kernel_size=(7, 7), stride=(1, 1), padding=(3, 3), groups=96, bias=False)\n    (4): BatchNorm2d(96, eps=1e-05, momentum=0.1, affine=True, track_running_stats=True)\n    (5): ReLU6(inplace=True)\n    (6): Conv2d(96, 32, kernel_size=(1, 1), stride=(1, 1), bias=False)\n    (7): BatchNorm2d(32, eps=1e-05, momentum=0.1, affine=True, track_running_stats=True)\n  )\n)>(normal, oup=32)', '<bound method Module.type of InvertedResidual(\n  (conv): Sequential(\n    (0): Conv2d(32, 96, kernel_size=(1, 1), stride=(1, 1), bias=False)\n    (1): BatchNorm2d(96, eps=1e-05, momentum=0.1, affine=True, track_running_stats=True)\n    (2): ReLU6(inplace=True)\n    (3): Conv2d(96, 96, kernel_size=(3, 3), stride=(2, 2), padding=(1, 1), groups=96, bias=False)\n    (4): BatchNorm2d(96, eps=1e-05, momentum=0.1, affine=True, track_running_stats=True)\n    (5): ReLU6(inplace=True)\n    (6): Conv2d(96, 56, kernel_size=(1, 1), stride=(1, 1), bias=False)\n    (7): BatchNorm2d(56, eps=1e-05, momentum=0.1, affine=True, track_running_stats=True)\n  )\n)>(reduce, oup=56)', '<bound method Module.type of InvertedResidual(\n  (conv): Sequential(\n    (0): Conv2d(56, 168, kernel_size=(1, 1), stride=(1, 1), bias=False)\n    (1): BatchNorm2d(168, eps=1e-05, momentum=0.1, affine=True, track_running_stats=True)\n    (2): ReLU6(inplace=True)\n    (3): Conv2d(168, 168, kernel_size=(3, 3), stride=(1, 1), padding=(1, 1), groups=168, bias=False)\n    (4): BatchNorm2d(168, eps=1e-05, momentum=0.1, affine=True, track_running_stats=True)\n    (5): ReLU6(inplace=True)\n    (6): Conv2d(168, 56, kernel_size=(1, 1), stride=(1, 1), bias=False)\n    (7): BatchNorm2d(56, eps=1e-05, momentum=0.1, affine=True, track_running_stats=True)\n  )\n)>(normal, oup=56)', '<bound method Module.type of InvertedResidual(\n  (conv): Sequential(\n    (0): Conv2d(56, 168, kernel_size=(1, 1), stride=(1, 1), bias=False)\n    (1): BatchNorm2d(168, eps=1e-05, momentum=0.1, affine=True, track_running_stats=True)\n    (2): ReLU6(inplace=True)\n    (3): Conv2d(168, 168, kernel_size=(7, 7), stride=(2, 2), padding=(3, 3), groups=168, bias=False)\n    (4): BatchNorm2d(168, eps=1e-05, momentum=0.1, affine=True, track_running_stats=True)\n    (5): ReLU6(inplace=True)\n    (6): Conv2d(168, 112, kernel_size=(1, 1), stride=(1, 1), bias=False)\n    (7): BatchNorm2d(112, eps=1e-05, momentum=0.1, affine=True, track_running_stats=True)\n  )\n)>(reduce, oup=112)', '<bound method Module.type of InvertedResidual(\n  (conv): Sequential(\n    (0): Conv2d(112, 336, kernel_size=(1, 1), stride=(1, 1), bias=False)\n    (1): BatchNorm2d(336, eps=1e-05, momentum=0.1, affine=True, track_running_stats=True)\n    (2): ReLU6(inplace=True)\n    (3): Conv2d(336, 336, kernel_size=(7, 7), stride=(1, 1), padding=(3, 3), groups=336, bias=False)\n    (4): BatchNorm2d(336, eps=1e-05, momentum=0.1, affine=True, track_running_stats=True)\n    (5): ReLU6(inplace=True)\n    (6): Conv2d(336, 112, kernel_size=(1, 1), stride=(1, 1), bias=False)\n    (7): BatchNorm2d(112, eps=1e-05, momentum=0.1, affine=True, track_running_stats=True)\n  )\n)>(normal, oup=112)', '<bound method Module.type of InvertedResidual(\n  (conv): Sequential(\n    (0): Conv2d(112, 336, kernel_size=(1, 1), stride=(1, 1), bias=False)\n    (1): BatchNorm2d(336, eps=1e-05, momentum=0.1, affine=True, track_running_stats=True)\n    (2): ReLU6(inplace=True)\n    (3): Conv2d(336, 336, kernel_size=(7, 7), stride=(1, 1), padding=(3, 3), groups=336, bias=False)\n    (4): BatchNorm2d(336, eps=1e-05, momentum=0.1, affine=True, track_running_stats=True)\n    (5): ReLU6(inplace=True)\n    (6): Conv2d(336, 112, kernel_size=(1, 1), stride=(1, 1), bias=False)\n    (7): BatchNorm2d(112, eps=1e-05, momentum=0.1, affine=True, track_running_stats=True)\n  )\n)>(normal, oup=112)', '<bound method Module.type of InvertedResidual(\n  (conv): Sequential(\n    (0): Conv2d(112, 672, kernel_size=(1, 1), stride=(1, 1), bias=False)\n    (1): BatchNorm2d(672, eps=1e-05, momentum=0.1, affine=True, track_running_stats=True)\n    (2): ReLU6(inplace=True)\n    (3): Conv2d(672, 672, kernel_size=(3, 3), stride=(1, 1), padding=(1, 1), groups=672, bias=False)\n    (4): BatchNorm2d(672, eps=1e-05, momentum=0.1, affine=True, track_running_stats=True)\n    (5): ReLU6(inplace=True)\n    (6): Conv2d(672, 128, kernel_size=(1, 1), stride=(1, 1), bias=False)\n    (7): BatchNorm2d(128, eps=1e-05, momentum=0.1, affine=True, track_running_stats=True)\n  )\n)>(normal, oup=128)', '<bound method Module.type of InvertedResidual(\n  (conv): Sequential(\n    (0): Conv2d(128, 384, kernel_size=(1, 1), stride=(1, 1), bias=False)\n    (1): BatchNorm2d(384, eps=1e-05, momentum=0.1, affine=True, track_running_stats=True)\n    (2): ReLU6(inplace=True)\n    (3): Conv2d(384, 384, kernel_size=(7, 7), stride=(1, 1), padding=(3, 3), groups=384, bias=False)\n    (4): BatchNorm2d(384, eps=1e-05, momentum=0.1, affine=True, track_running_stats=True)\n    (5): ReLU6(inplace=True)\n    (6): Conv2d(384, 128, kernel_size=(1, 1), stride=(1, 1), bias=False)\n    (7): BatchNorm2d(128, eps=1e-05, momentum=0.1, affine=True, track_running_stats=True)\n  )\n)>(normal, oup=128)', '<bound method Module.type of InvertedResidual(\n  (conv): Sequential(\n    (0): Conv2d(128, 384, kernel_size=(1, 1), stride=(1, 1), bias=False)\n    (1): BatchNorm2d(384, eps=1e-05, momentum=0.1, affine=True, track_running_stats=True)\n    (2): ReLU6(inplace=True)\n    (3): Conv2d(384, 384, kernel_size=(5, 5), stride=(1, 1), padding=(2, 2), groups=384, bias=False)\n    (4): BatchNorm2d(384, eps=1e-05, momentum=0.1, affine=True, track_running_stats=True)\n    (5): ReLU6(inplace=True)\n    (6): Conv2d(384, 128, kernel_size=(1, 1), stride=(1, 1), bias=False)\n    (7): BatchNorm2d(128, eps=1e-05, momentum=0.1, affine=True, track_running_stats=True)\n  )\n)>(normal, oup=128)', '<bound method Module.type of InvertedResidual(\n  (conv): Sequential(\n    (0): Conv2d(128, 384, kernel_size=(1, 1), stride=(1, 1), bias=False)\n    (1): BatchNorm2d(384, eps=1e-05, momentum=0.1, affine=True, track_running_stats=True)\n    (2): ReLU6(inplace=True)\n    (3): Conv2d(384, 384, kernel_size=(3, 3), stride=(1, 1), padding=(1, 1), groups=384, bias=False)\n    (4): BatchNorm2d(384, eps=1e-05, momentum=0.1, affine=True, track_running_stats=True)\n    (5): ReLU6(inplace=True)\n    (6): Conv2d(384, 128, kernel_size=(1, 1), stride=(1, 1), bias=False)\n    (7): BatchNorm2d(128, eps=1e-05, momentum=0.1, affine=True, track_running_stats=True)\n  )\n)>(normal, oup=128)', '<bound method Module.type of InvertedResidual(\n  (conv): Sequential(\n    (0): Conv2d(128, 384, kernel_size=(1, 1), stride=(1, 1), bias=False)\n    (1): BatchNorm2d(384, eps=1e-05, momentum=0.1, affine=True, track_running_stats=True)\n    (2): ReLU6(inplace=True)\n    (3): Conv2d(384, 384, kernel_size=(3, 3), stride=(2, 2), padding=(1, 1), groups=384, bias=False)\n    (4): BatchNorm2d(384, eps=1e-05, momentum=0.1, affine=True, track_running_stats=True)\n    (5): ReLU6(inplace=True)\n    (6): Conv2d(384, 256, kernel_size=(1, 1), stride=(1, 1), bias=False)\n    (7): BatchNorm2d(256, eps=1e-05, momentum=0.1, affine=True, track_running_stats=True)\n  )\n)>(reduce, oup=256)', '<bound method Module.type of InvertedResidual(\n  (conv): Sequential(\n    (0): Conv2d(256, 768, kernel_size=(1, 1), stride=(1, 1), bias=False)\n    (1): BatchNorm2d(768, eps=1e-05, momentum=0.1, affine=True, track_running_stats=True)\n    (2): ReLU6(inplace=True)\n    (3): Conv2d(768, 768, kernel_size=(7, 7), stride=(1, 1), padding=(3, 3), groups=768, bias=False)\n    (4): BatchNorm2d(768, eps=1e-05, momentum=0.1, affine=True, track_running_stats=True)\n    (5): ReLU6(inplace=True)\n    (6): Conv2d(768, 256, kernel_size=(1, 1), stride=(1, 1), bias=False)\n    (7): BatchNorm2d(256, eps=1e-05, momentum=0.1, affine=True, track_running_stats=True)\n  )\n)>(normal, oup=256)', '<bound method Module.type of InvertedResidual(\n  (conv): Sequential(\n    (0): Conv2d(256, 768, kernel_size=(1, 1), stride=(1, 1), bias=False)\n    (1): BatchNorm2d(768, eps=1e-05, momentum=0.1, affine=True, track_running_stats=True)\n    (2): ReLU6(inplace=True)\n    (3): Conv2d(768, 768, kernel_size=(3, 3), stride=(1, 1), padding=(1, 1), groups=768, bias=False)\n    (4): BatchNorm2d(768, eps=1e-05, momentum=0.1, affine=True, track_running_stats=True)\n    (5): ReLU6(inplace=True)\n    (6): Conv2d(768, 256, kernel_size=(1, 1), stride=(1, 1), bias=False)\n    (7): BatchNorm2d(256, eps=1e-05, momentum=0.1, affine=True, track_running_stats=True)\n  )\n)>(normal, oup=256)', '<bound method Module.type of InvertedResidual(\n  (conv): Sequential(\n    (0): Conv2d(256, 768, kernel_size=(1, 1), stride=(1, 1), bias=False)\n    (1): BatchNorm2d(768, eps=1e-05, momentum=0.1, affine=True, track_running_stats=True)\n    (2): ReLU6(inplace=True)\n    (3): Conv2d(768, 768, kernel_size=(5, 5), stride=(1, 1), padding=(2, 2), groups=768, bias=False)\n    (4): BatchNorm2d(768, eps=1e-05, momentum=0.1, affine=True, track_running_stats=True)\n    (5): ReLU6(inplace=True)\n    (6): Conv2d(768, 256, kernel_size=(1, 1), stride=(1, 1), bias=False)\n    (7): BatchNorm2d(256, eps=1e-05, momentum=0.1, affine=True, track_running_stats=True)\n  )\n)>(normal, oup=256)', '<bound method Module.type of InvertedResidual(\n  (conv): Sequential(\n    (0): Conv2d(256, 768, kernel_size=(1, 1), stride=(1, 1), bias=False)\n    (1): BatchNorm2d(768, eps=1e-05, momentum=0.1, affine=True, track_running_stats=True)\n    (2): ReLU6(inplace=True)\n    (3): Conv2d(768, 768, kernel_size=(5, 5), stride=(1, 1), padding=(2, 2), groups=768, bias=False)\n    (4): BatchNorm2d(768, eps=1e-05, momentum=0.1, affine=True, track_running_stats=True)\n    (5): ReLU6(inplace=True)\n    (6): Conv2d(768, 432, kernel_size=(1, 1), stride=(1, 1), bias=False)\n    (7): BatchNorm2d(432, eps=1e-05, momentum=0.1, affine=True, track_running_stats=True)\n  )\n)>(normal, oup=432)']
2021-12-13 14:35:20,736 rngs:[3, -1, 0, 4, 0, -1, -1, 0, 4, -1, 4, 4, 1, 4, 2, 0, 0, 4, 0, 2, 2], arch:['<bound method Module.type of InvertedResidual(\n  (conv): Sequential(\n    (0): Conv2d(24, 144, kernel_size=(1, 1), stride=(1, 1), bias=False)\n    (1): BatchNorm2d(144, eps=1e-05, momentum=0.1, affine=True, track_running_stats=True)\n    (2): ReLU6(inplace=True)\n    (3): Conv2d(144, 144, kernel_size=(5, 5), stride=(2, 2), padding=(2, 2), groups=144, bias=False)\n    (4): BatchNorm2d(144, eps=1e-05, momentum=0.1, affine=True, track_running_stats=True)\n    (5): ReLU6(inplace=True)\n    (6): Conv2d(144, 32, kernel_size=(1, 1), stride=(1, 1), bias=False)\n    (7): BatchNorm2d(32, eps=1e-05, momentum=0.1, affine=True, track_running_stats=True)\n  )\n)>(reduce, oup=32)', '<bound method Module.type of InvertedResidual(\n  (conv): Sequential(\n    (0): Conv2d(32, 96, kernel_size=(1, 1), stride=(1, 1), bias=False)\n    (1): BatchNorm2d(96, eps=1e-05, momentum=0.1, affine=True, track_running_stats=True)\n    (2): ReLU6(inplace=True)\n    (3): Conv2d(96, 96, kernel_size=(3, 3), stride=(1, 1), padding=(1, 1), groups=96, bias=False)\n    (4): BatchNorm2d(96, eps=1e-05, momentum=0.1, affine=True, track_running_stats=True)\n    (5): ReLU6(inplace=True)\n    (6): Conv2d(96, 32, kernel_size=(1, 1), stride=(1, 1), bias=False)\n    (7): BatchNorm2d(32, eps=1e-05, momentum=0.1, affine=True, track_running_stats=True)\n  )\n)>(normal, oup=32)', '<bound method Module.type of InvertedResidual(\n  (conv): Sequential(\n    (0): Conv2d(32, 96, kernel_size=(1, 1), stride=(1, 1), bias=False)\n    (1): BatchNorm2d(96, eps=1e-05, momentum=0.1, affine=True, track_running_stats=True)\n    (2): ReLU6(inplace=True)\n    (3): Conv2d(96, 96, kernel_size=(7, 7), stride=(1, 1), padding=(3, 3), groups=96, bias=False)\n    (4): BatchNorm2d(96, eps=1e-05, momentum=0.1, affine=True, track_running_stats=True)\n    (5): ReLU6(inplace=True)\n    (6): Conv2d(96, 32, kernel_size=(1, 1), stride=(1, 1), bias=False)\n    (7): BatchNorm2d(32, eps=1e-05, momentum=0.1, affine=True, track_running_stats=True)\n  )\n)>(normal, oup=32)', '<bound method Module.type of InvertedResidual(\n  (conv): Sequential(\n    (0): Conv2d(32, 96, kernel_size=(1, 1), stride=(1, 1), bias=False)\n    (1): BatchNorm2d(96, eps=1e-05, momentum=0.1, affine=True, track_running_stats=True)\n    (2): ReLU6(inplace=True)\n    (3): Conv2d(96, 96, kernel_size=(3, 3), stride=(2, 2), padding=(1, 1), groups=96, bias=False)\n    (4): BatchNorm2d(96, eps=1e-05, momentum=0.1, affine=True, track_running_stats=True)\n    (5): ReLU6(inplace=True)\n    (6): Conv2d(96, 56, kernel_size=(1, 1), stride=(1, 1), bias=False)\n    (7): BatchNorm2d(56, eps=1e-05, momentum=0.1, affine=True, track_running_stats=True)\n  )\n)>(reduce, oup=56)', '<bound method Module.type of InvertedResidual(\n  (conv): Sequential(\n    (0): Conv2d(56, 168, kernel_size=(1, 1), stride=(1, 1), bias=False)\n    (1): BatchNorm2d(168, eps=1e-05, momentum=0.1, affine=True, track_running_stats=True)\n    (2): ReLU6(inplace=True)\n    (3): Conv2d(168, 168, kernel_size=(3, 3), stride=(1, 1), padding=(1, 1), groups=168, bias=False)\n    (4): BatchNorm2d(168, eps=1e-05, momentum=0.1, affine=True, track_running_stats=True)\n    (5): ReLU6(inplace=True)\n    (6): Conv2d(168, 56, kernel_size=(1, 1), stride=(1, 1), bias=False)\n    (7): BatchNorm2d(56, eps=1e-05, momentum=0.1, affine=True, track_running_stats=True)\n  )\n)>(normal, oup=56)', '<bound method Module.type of InvertedResidual(\n  (conv): Sequential(\n    (0): Conv2d(56, 168, kernel_size=(1, 1), stride=(1, 1), bias=False)\n    (1): BatchNorm2d(168, eps=1e-05, momentum=0.1, affine=True, track_running_stats=True)\n    (2): ReLU6(inplace=True)\n    (3): Conv2d(168, 168, kernel_size=(7, 7), stride=(2, 2), padding=(3, 3), groups=168, bias=False)\n    (4): BatchNorm2d(168, eps=1e-05, momentum=0.1, affine=True, track_running_stats=True)\n    (5): ReLU6(inplace=True)\n    (6): Conv2d(168, 112, kernel_size=(1, 1), stride=(1, 1), bias=False)\n    (7): BatchNorm2d(112, eps=1e-05, momentum=0.1, affine=True, track_running_stats=True)\n  )\n)>(reduce, oup=112)', '<bound method Module.type of InvertedResidual(\n  (conv): Sequential(\n    (0): Conv2d(112, 336, kernel_size=(1, 1), stride=(1, 1), bias=False)\n    (1): BatchNorm2d(336, eps=1e-05, momentum=0.1, affine=True, track_running_stats=True)\n    (2): ReLU6(inplace=True)\n    (3): Conv2d(336, 336, kernel_size=(7, 7), stride=(1, 1), padding=(3, 3), groups=336, bias=False)\n    (4): BatchNorm2d(336, eps=1e-05, momentum=0.1, affine=True, track_running_stats=True)\n    (5): ReLU6(inplace=True)\n    (6): Conv2d(336, 112, kernel_size=(1, 1), stride=(1, 1), bias=False)\n    (7): BatchNorm2d(112, eps=1e-05, momentum=0.1, affine=True, track_running_stats=True)\n  )\n)>(normal, oup=112)', '<bound method Module.type of InvertedResidual(\n  (conv): Sequential(\n    (0): Conv2d(112, 336, kernel_size=(1, 1), stride=(1, 1), bias=False)\n    (1): BatchNorm2d(336, eps=1e-05, momentum=0.1, affine=True, track_running_stats=True)\n    (2): ReLU6(inplace=True)\n    (3): Conv2d(336, 336, kernel_size=(7, 7), stride=(1, 1), padding=(3, 3), groups=336, bias=False)\n    (4): BatchNorm2d(336, eps=1e-05, momentum=0.1, affine=True, track_running_stats=True)\n    (5): ReLU6(inplace=True)\n    (6): Conv2d(336, 112, kernel_size=(1, 1), stride=(1, 1), bias=False)\n    (7): BatchNorm2d(112, eps=1e-05, momentum=0.1, affine=True, track_running_stats=True)\n  )\n)>(normal, oup=112)', '<bound method Module.type of InvertedResidual(\n  (conv): Sequential(\n    (0): Conv2d(112, 672, kernel_size=(1, 1), stride=(1, 1), bias=False)\n    (1): BatchNorm2d(672, eps=1e-05, momentum=0.1, affine=True, track_running_stats=True)\n    (2): ReLU6(inplace=True)\n    (3): Conv2d(672, 672, kernel_size=(3, 3), stride=(1, 1), padding=(1, 1), groups=672, bias=False)\n    (4): BatchNorm2d(672, eps=1e-05, momentum=0.1, affine=True, track_running_stats=True)\n    (5): ReLU6(inplace=True)\n    (6): Conv2d(672, 128, kernel_size=(1, 1), stride=(1, 1), bias=False)\n    (7): BatchNorm2d(128, eps=1e-05, momentum=0.1, affine=True, track_running_stats=True)\n  )\n)>(normal, oup=128)', '<bound method Module.type of InvertedResidual(\n  (conv): Sequential(\n    (0): Conv2d(128, 384, kernel_size=(1, 1), stride=(1, 1), bias=False)\n    (1): BatchNorm2d(384, eps=1e-05, momentum=0.1, affine=True, track_running_stats=True)\n    (2): ReLU6(inplace=True)\n    (3): Conv2d(384, 384, kernel_size=(7, 7), stride=(1, 1), padding=(3, 3), groups=384, bias=False)\n    (4): BatchNorm2d(384, eps=1e-05, momentum=0.1, affine=True, track_running_stats=True)\n    (5): ReLU6(inplace=True)\n    (6): Conv2d(384, 128, kernel_size=(1, 1), stride=(1, 1), bias=False)\n    (7): BatchNorm2d(128, eps=1e-05, momentum=0.1, affine=True, track_running_stats=True)\n  )\n)>(normal, oup=128)', '<bound method Module.type of InvertedResidual(\n  (conv): Sequential(\n    (0): Conv2d(128, 384, kernel_size=(1, 1), stride=(1, 1), bias=False)\n    (1): BatchNorm2d(384, eps=1e-05, momentum=0.1, affine=True, track_running_stats=True)\n    (2): ReLU6(inplace=True)\n    (3): Conv2d(384, 384, kernel_size=(5, 5), stride=(1, 1), padding=(2, 2), groups=384, bias=False)\n    (4): BatchNorm2d(384, eps=1e-05, momentum=0.1, affine=True, track_running_stats=True)\n    (5): ReLU6(inplace=True)\n    (6): Conv2d(384, 128, kernel_size=(1, 1), stride=(1, 1), bias=False)\n    (7): BatchNorm2d(128, eps=1e-05, momentum=0.1, affine=True, track_running_stats=True)\n  )\n)>(normal, oup=128)', '<bound method Module.type of InvertedResidual(\n  (conv): Sequential(\n    (0): Conv2d(128, 384, kernel_size=(1, 1), stride=(1, 1), bias=False)\n    (1): BatchNorm2d(384, eps=1e-05, momentum=0.1, affine=True, track_running_stats=True)\n    (2): ReLU6(inplace=True)\n    (3): Conv2d(384, 384, kernel_size=(3, 3), stride=(1, 1), padding=(1, 1), groups=384, bias=False)\n    (4): BatchNorm2d(384, eps=1e-05, momentum=0.1, affine=True, track_running_stats=True)\n    (5): ReLU6(inplace=True)\n    (6): Conv2d(384, 128, kernel_size=(1, 1), stride=(1, 1), bias=False)\n    (7): BatchNorm2d(128, eps=1e-05, momentum=0.1, affine=True, track_running_stats=True)\n  )\n)>(normal, oup=128)', '<bound method Module.type of InvertedResidual(\n  (conv): Sequential(\n    (0): Conv2d(128, 384, kernel_size=(1, 1), stride=(1, 1), bias=False)\n    (1): BatchNorm2d(384, eps=1e-05, momentum=0.1, affine=True, track_running_stats=True)\n    (2): ReLU6(inplace=True)\n    (3): Conv2d(384, 384, kernel_size=(3, 3), stride=(2, 2), padding=(1, 1), groups=384, bias=False)\n    (4): BatchNorm2d(384, eps=1e-05, momentum=0.1, affine=True, track_running_stats=True)\n    (5): ReLU6(inplace=True)\n    (6): Conv2d(384, 256, kernel_size=(1, 1), stride=(1, 1), bias=False)\n    (7): BatchNorm2d(256, eps=1e-05, momentum=0.1, affine=True, track_running_stats=True)\n  )\n)>(reduce, oup=256)', '<bound method Module.type of InvertedResidual(\n  (conv): Sequential(\n    (0): Conv2d(256, 768, kernel_size=(1, 1), stride=(1, 1), bias=False)\n    (1): BatchNorm2d(768, eps=1e-05, momentum=0.1, affine=True, track_running_stats=True)\n    (2): ReLU6(inplace=True)\n    (3): Conv2d(768, 768, kernel_size=(7, 7), stride=(1, 1), padding=(3, 3), groups=768, bias=False)\n    (4): BatchNorm2d(768, eps=1e-05, momentum=0.1, affine=True, track_running_stats=True)\n    (5): ReLU6(inplace=True)\n    (6): Conv2d(768, 256, kernel_size=(1, 1), stride=(1, 1), bias=False)\n    (7): BatchNorm2d(256, eps=1e-05, momentum=0.1, affine=True, track_running_stats=True)\n  )\n)>(normal, oup=256)', '<bound method Module.type of InvertedResidual(\n  (conv): Sequential(\n    (0): Conv2d(256, 768, kernel_size=(1, 1), stride=(1, 1), bias=False)\n    (1): BatchNorm2d(768, eps=1e-05, momentum=0.1, affine=True, track_running_stats=True)\n    (2): ReLU6(inplace=True)\n    (3): Conv2d(768, 768, kernel_size=(3, 3), stride=(1, 1), padding=(1, 1), groups=768, bias=False)\n    (4): BatchNorm2d(768, eps=1e-05, momentum=0.1, affine=True, track_running_stats=True)\n    (5): ReLU6(inplace=True)\n    (6): Conv2d(768, 256, kernel_size=(1, 1), stride=(1, 1), bias=False)\n    (7): BatchNorm2d(256, eps=1e-05, momentum=0.1, affine=True, track_running_stats=True)\n  )\n)>(normal, oup=256)', '<bound method Module.type of InvertedResidual(\n  (conv): Sequential(\n    (0): Conv2d(256, 768, kernel_size=(1, 1), stride=(1, 1), bias=False)\n    (1): BatchNorm2d(768, eps=1e-05, momentum=0.1, affine=True, track_running_stats=True)\n    (2): ReLU6(inplace=True)\n    (3): Conv2d(768, 768, kernel_size=(5, 5), stride=(1, 1), padding=(2, 2), groups=768, bias=False)\n    (4): BatchNorm2d(768, eps=1e-05, momentum=0.1, affine=True, track_running_stats=True)\n    (5): ReLU6(inplace=True)\n    (6): Conv2d(768, 256, kernel_size=(1, 1), stride=(1, 1), bias=False)\n    (7): BatchNorm2d(256, eps=1e-05, momentum=0.1, affine=True, track_running_stats=True)\n  )\n)>(normal, oup=256)', '<bound method Module.type of InvertedResidual(\n  (conv): Sequential(\n    (0): Conv2d(256, 768, kernel_size=(1, 1), stride=(1, 1), bias=False)\n    (1): BatchNorm2d(768, eps=1e-05, momentum=0.1, affine=True, track_running_stats=True)\n    (2): ReLU6(inplace=True)\n    (3): Conv2d(768, 768, kernel_size=(5, 5), stride=(1, 1), padding=(2, 2), groups=768, bias=False)\n    (4): BatchNorm2d(768, eps=1e-05, momentum=0.1, affine=True, track_running_stats=True)\n    (5): ReLU6(inplace=True)\n    (6): Conv2d(768, 432, kernel_size=(1, 1), stride=(1, 1), bias=False)\n    (7): BatchNorm2d(432, eps=1e-05, momentum=0.1, affine=True, track_running_stats=True)\n  )\n)>(normal, oup=432)']
2021-12-13 14:35:20,736 rngs:[3, -1, 0, 4, 0, -1, -1, 0, 4, -1, 4, 4, 1, 4, 2, 0, 0, 4, 0, 2, 2], arch:['<bound method Module.type of InvertedResidual(\n  (conv): Sequential(\n    (0): Conv2d(24, 144, kernel_size=(1, 1), stride=(1, 1), bias=False)\n    (1): BatchNorm2d(144, eps=1e-05, momentum=0.1, affine=True, track_running_stats=True)\n    (2): ReLU6(inplace=True)\n    (3): Conv2d(144, 144, kernel_size=(5, 5), stride=(2, 2), padding=(2, 2), groups=144, bias=False)\n    (4): BatchNorm2d(144, eps=1e-05, momentum=0.1, affine=True, track_running_stats=True)\n    (5): ReLU6(inplace=True)\n    (6): Conv2d(144, 32, kernel_size=(1, 1), stride=(1, 1), bias=False)\n    (7): BatchNorm2d(32, eps=1e-05, momentum=0.1, affine=True, track_running_stats=True)\n  )\n)>(reduce, oup=32)', '<bound method Module.type of InvertedResidual(\n  (conv): Sequential(\n    (0): Conv2d(32, 96, kernel_size=(1, 1), stride=(1, 1), bias=False)\n    (1): BatchNorm2d(96, eps=1e-05, momentum=0.1, affine=True, track_running_stats=True)\n    (2): ReLU6(inplace=True)\n    (3): Conv2d(96, 96, kernel_size=(3, 3), stride=(1, 1), padding=(1, 1), groups=96, bias=False)\n    (4): BatchNorm2d(96, eps=1e-05, momentum=0.1, affine=True, track_running_stats=True)\n    (5): ReLU6(inplace=True)\n    (6): Conv2d(96, 32, kernel_size=(1, 1), stride=(1, 1), bias=False)\n    (7): BatchNorm2d(32, eps=1e-05, momentum=0.1, affine=True, track_running_stats=True)\n  )\n)>(normal, oup=32)', '<bound method Module.type of InvertedResidual(\n  (conv): Sequential(\n    (0): Conv2d(32, 96, kernel_size=(1, 1), stride=(1, 1), bias=False)\n    (1): BatchNorm2d(96, eps=1e-05, momentum=0.1, affine=True, track_running_stats=True)\n    (2): ReLU6(inplace=True)\n    (3): Conv2d(96, 96, kernel_size=(7, 7), stride=(1, 1), padding=(3, 3), groups=96, bias=False)\n    (4): BatchNorm2d(96, eps=1e-05, momentum=0.1, affine=True, track_running_stats=True)\n    (5): ReLU6(inplace=True)\n    (6): Conv2d(96, 32, kernel_size=(1, 1), stride=(1, 1), bias=False)\n    (7): BatchNorm2d(32, eps=1e-05, momentum=0.1, affine=True, track_running_stats=True)\n  )\n)>(normal, oup=32)', '<bound method Module.type of InvertedResidual(\n  (conv): Sequential(\n    (0): Conv2d(32, 96, kernel_size=(1, 1), stride=(1, 1), bias=False)\n    (1): BatchNorm2d(96, eps=1e-05, momentum=0.1, affine=True, track_running_stats=True)\n    (2): ReLU6(inplace=True)\n    (3): Conv2d(96, 96, kernel_size=(3, 3), stride=(2, 2), padding=(1, 1), groups=96, bias=False)\n    (4): BatchNorm2d(96, eps=1e-05, momentum=0.1, affine=True, track_running_stats=True)\n    (5): ReLU6(inplace=True)\n    (6): Conv2d(96, 56, kernel_size=(1, 1), stride=(1, 1), bias=False)\n    (7): BatchNorm2d(56, eps=1e-05, momentum=0.1, affine=True, track_running_stats=True)\n  )\n)>(reduce, oup=56)', '<bound method Module.type of InvertedResidual(\n  (conv): Sequential(\n    (0): Conv2d(56, 168, kernel_size=(1, 1), stride=(1, 1), bias=False)\n    (1): BatchNorm2d(168, eps=1e-05, momentum=0.1, affine=True, track_running_stats=True)\n    (2): ReLU6(inplace=True)\n    (3): Conv2d(168, 168, kernel_size=(3, 3), stride=(1, 1), padding=(1, 1), groups=168, bias=False)\n    (4): BatchNorm2d(168, eps=1e-05, momentum=0.1, affine=True, track_running_stats=True)\n    (5): ReLU6(inplace=True)\n    (6): Conv2d(168, 56, kernel_size=(1, 1), stride=(1, 1), bias=False)\n    (7): BatchNorm2d(56, eps=1e-05, momentum=0.1, affine=True, track_running_stats=True)\n  )\n)>(normal, oup=56)', '<bound method Module.type of InvertedResidual(\n  (conv): Sequential(\n    (0): Conv2d(56, 168, kernel_size=(1, 1), stride=(1, 1), bias=False)\n    (1): BatchNorm2d(168, eps=1e-05, momentum=0.1, affine=True, track_running_stats=True)\n    (2): ReLU6(inplace=True)\n    (3): Conv2d(168, 168, kernel_size=(7, 7), stride=(2, 2), padding=(3, 3), groups=168, bias=False)\n    (4): BatchNorm2d(168, eps=1e-05, momentum=0.1, affine=True, track_running_stats=True)\n    (5): ReLU6(inplace=True)\n    (6): Conv2d(168, 112, kernel_size=(1, 1), stride=(1, 1), bias=False)\n    (7): BatchNorm2d(112, eps=1e-05, momentum=0.1, affine=True, track_running_stats=True)\n  )\n)>(reduce, oup=112)', '<bound method Module.type of InvertedResidual(\n  (conv): Sequential(\n    (0): Conv2d(112, 336, kernel_size=(1, 1), stride=(1, 1), bias=False)\n    (1): BatchNorm2d(336, eps=1e-05, momentum=0.1, affine=True, track_running_stats=True)\n    (2): ReLU6(inplace=True)\n    (3): Conv2d(336, 336, kernel_size=(7, 7), stride=(1, 1), padding=(3, 3), groups=336, bias=False)\n    (4): BatchNorm2d(336, eps=1e-05, momentum=0.1, affine=True, track_running_stats=True)\n    (5): ReLU6(inplace=True)\n    (6): Conv2d(336, 112, kernel_size=(1, 1), stride=(1, 1), bias=False)\n    (7): BatchNorm2d(112, eps=1e-05, momentum=0.1, affine=True, track_running_stats=True)\n  )\n)>(normal, oup=112)', '<bound method Module.type of InvertedResidual(\n  (conv): Sequential(\n    (0): Conv2d(112, 336, kernel_size=(1, 1), stride=(1, 1), bias=False)\n    (1): BatchNorm2d(336, eps=1e-05, momentum=0.1, affine=True, track_running_stats=True)\n    (2): ReLU6(inplace=True)\n    (3): Conv2d(336, 336, kernel_size=(7, 7), stride=(1, 1), padding=(3, 3), groups=336, bias=False)\n    (4): BatchNorm2d(336, eps=1e-05, momentum=0.1, affine=True, track_running_stats=True)\n    (5): ReLU6(inplace=True)\n    (6): Conv2d(336, 112, kernel_size=(1, 1), stride=(1, 1), bias=False)\n    (7): BatchNorm2d(112, eps=1e-05, momentum=0.1, affine=True, track_running_stats=True)\n  )\n)>(normal, oup=112)', '<bound method Module.type of InvertedResidual(\n  (conv): Sequential(\n    (0): Conv2d(112, 672, kernel_size=(1, 1), stride=(1, 1), bias=False)\n    (1): BatchNorm2d(672, eps=1e-05, momentum=0.1, affine=True, track_running_stats=True)\n    (2): ReLU6(inplace=True)\n    (3): Conv2d(672, 672, kernel_size=(3, 3), stride=(1, 1), padding=(1, 1), groups=672, bias=False)\n    (4): BatchNorm2d(672, eps=1e-05, momentum=0.1, affine=True, track_running_stats=True)\n    (5): ReLU6(inplace=True)\n    (6): Conv2d(672, 128, kernel_size=(1, 1), stride=(1, 1), bias=False)\n    (7): BatchNorm2d(128, eps=1e-05, momentum=0.1, affine=True, track_running_stats=True)\n  )\n)>(normal, oup=128)', '<bound method Module.type of InvertedResidual(\n  (conv): Sequential(\n    (0): Conv2d(128, 384, kernel_size=(1, 1), stride=(1, 1), bias=False)\n    (1): BatchNorm2d(384, eps=1e-05, momentum=0.1, affine=True, track_running_stats=True)\n    (2): ReLU6(inplace=True)\n    (3): Conv2d(384, 384, kernel_size=(7, 7), stride=(1, 1), padding=(3, 3), groups=384, bias=False)\n    (4): BatchNorm2d(384, eps=1e-05, momentum=0.1, affine=True, track_running_stats=True)\n    (5): ReLU6(inplace=True)\n    (6): Conv2d(384, 128, kernel_size=(1, 1), stride=(1, 1), bias=False)\n    (7): BatchNorm2d(128, eps=1e-05, momentum=0.1, affine=True, track_running_stats=True)\n  )\n)>(normal, oup=128)', '<bound method Module.type of InvertedResidual(\n  (conv): Sequential(\n    (0): Conv2d(128, 384, kernel_size=(1, 1), stride=(1, 1), bias=False)\n    (1): BatchNorm2d(384, eps=1e-05, momentum=0.1, affine=True, track_running_stats=True)\n    (2): ReLU6(inplace=True)\n    (3): Conv2d(384, 384, kernel_size=(5, 5), stride=(1, 1), padding=(2, 2), groups=384, bias=False)\n    (4): BatchNorm2d(384, eps=1e-05, momentum=0.1, affine=True, track_running_stats=True)\n    (5): ReLU6(inplace=True)\n    (6): Conv2d(384, 128, kernel_size=(1, 1), stride=(1, 1), bias=False)\n    (7): BatchNorm2d(128, eps=1e-05, momentum=0.1, affine=True, track_running_stats=True)\n  )\n)>(normal, oup=128)', '<bound method Module.type of InvertedResidual(\n  (conv): Sequential(\n    (0): Conv2d(128, 384, kernel_size=(1, 1), stride=(1, 1), bias=False)\n    (1): BatchNorm2d(384, eps=1e-05, momentum=0.1, affine=True, track_running_stats=True)\n    (2): ReLU6(inplace=True)\n    (3): Conv2d(384, 384, kernel_size=(3, 3), stride=(1, 1), padding=(1, 1), groups=384, bias=False)\n    (4): BatchNorm2d(384, eps=1e-05, momentum=0.1, affine=True, track_running_stats=True)\n    (5): ReLU6(inplace=True)\n    (6): Conv2d(384, 128, kernel_size=(1, 1), stride=(1, 1), bias=False)\n    (7): BatchNorm2d(128, eps=1e-05, momentum=0.1, affine=True, track_running_stats=True)\n  )\n)>(normal, oup=128)', '<bound method Module.type of InvertedResidual(\n  (conv): Sequential(\n    (0): Conv2d(128, 384, kernel_size=(1, 1), stride=(1, 1), bias=False)\n    (1): BatchNorm2d(384, eps=1e-05, momentum=0.1, affine=True, track_running_stats=True)\n    (2): ReLU6(inplace=True)\n    (3): Conv2d(384, 384, kernel_size=(3, 3), stride=(2, 2), padding=(1, 1), groups=384, bias=False)\n    (4): BatchNorm2d(384, eps=1e-05, momentum=0.1, affine=True, track_running_stats=True)\n    (5): ReLU6(inplace=True)\n    (6): Conv2d(384, 256, kernel_size=(1, 1), stride=(1, 1), bias=False)\n    (7): BatchNorm2d(256, eps=1e-05, momentum=0.1, affine=True, track_running_stats=True)\n  )\n)>(reduce, oup=256)', '<bound method Module.type of InvertedResidual(\n  (conv): Sequential(\n    (0): Conv2d(256, 768, kernel_size=(1, 1), stride=(1, 1), bias=False)\n    (1): BatchNorm2d(768, eps=1e-05, momentum=0.1, affine=True, track_running_stats=True)\n    (2): ReLU6(inplace=True)\n    (3): Conv2d(768, 768, kernel_size=(7, 7), stride=(1, 1), padding=(3, 3), groups=768, bias=False)\n    (4): BatchNorm2d(768, eps=1e-05, momentum=0.1, affine=True, track_running_stats=True)\n    (5): ReLU6(inplace=True)\n    (6): Conv2d(768, 256, kernel_size=(1, 1), stride=(1, 1), bias=False)\n    (7): BatchNorm2d(256, eps=1e-05, momentum=0.1, affine=True, track_running_stats=True)\n  )\n)>(normal, oup=256)', '<bound method Module.type of InvertedResidual(\n  (conv): Sequential(\n    (0): Conv2d(256, 768, kernel_size=(1, 1), stride=(1, 1), bias=False)\n    (1): BatchNorm2d(768, eps=1e-05, momentum=0.1, affine=True, track_running_stats=True)\n    (2): ReLU6(inplace=True)\n    (3): Conv2d(768, 768, kernel_size=(3, 3), stride=(1, 1), padding=(1, 1), groups=768, bias=False)\n    (4): BatchNorm2d(768, eps=1e-05, momentum=0.1, affine=True, track_running_stats=True)\n    (5): ReLU6(inplace=True)\n    (6): Conv2d(768, 256, kernel_size=(1, 1), stride=(1, 1), bias=False)\n    (7): BatchNorm2d(256, eps=1e-05, momentum=0.1, affine=True, track_running_stats=True)\n  )\n)>(normal, oup=256)', '<bound method Module.type of InvertedResidual(\n  (conv): Sequential(\n    (0): Conv2d(256, 768, kernel_size=(1, 1), stride=(1, 1), bias=False)\n    (1): BatchNorm2d(768, eps=1e-05, momentum=0.1, affine=True, track_running_stats=True)\n    (2): ReLU6(inplace=True)\n    (3): Conv2d(768, 768, kernel_size=(5, 5), stride=(1, 1), padding=(2, 2), groups=768, bias=False)\n    (4): BatchNorm2d(768, eps=1e-05, momentum=0.1, affine=True, track_running_stats=True)\n    (5): ReLU6(inplace=True)\n    (6): Conv2d(768, 256, kernel_size=(1, 1), stride=(1, 1), bias=False)\n    (7): BatchNorm2d(256, eps=1e-05, momentum=0.1, affine=True, track_running_stats=True)\n  )\n)>(normal, oup=256)', '<bound method Module.type of InvertedResidual(\n  (conv): Sequential(\n    (0): Conv2d(256, 768, kernel_size=(1, 1), stride=(1, 1), bias=False)\n    (1): BatchNorm2d(768, eps=1e-05, momentum=0.1, affine=True, track_running_stats=True)\n    (2): ReLU6(inplace=True)\n    (3): Conv2d(768, 768, kernel_size=(5, 5), stride=(1, 1), padding=(2, 2), groups=768, bias=False)\n    (4): BatchNorm2d(768, eps=1e-05, momentum=0.1, affine=True, track_running_stats=True)\n    (5): ReLU6(inplace=True)\n    (6): Conv2d(768, 432, kernel_size=(1, 1), stride=(1, 1), bias=False)\n    (7): BatchNorm2d(432, eps=1e-05, momentum=0.1, affine=True, track_running_stats=True)\n  )\n)>(normal, oup=432)']
2021-12-13 14:35:20,736 rngs:[3, -1, 0, 4, 0, -1, -1, 0, 4, -1, 4, 4, 1, 4, 2, 0, 0, 4, 0, 2, 2], arch:['<bound method Module.type of InvertedResidual(\n  (conv): Sequential(\n    (0): Conv2d(24, 144, kernel_size=(1, 1), stride=(1, 1), bias=False)\n    (1): BatchNorm2d(144, eps=1e-05, momentum=0.1, affine=True, track_running_stats=True)\n    (2): ReLU6(inplace=True)\n    (3): Conv2d(144, 144, kernel_size=(5, 5), stride=(2, 2), padding=(2, 2), groups=144, bias=False)\n    (4): BatchNorm2d(144, eps=1e-05, momentum=0.1, affine=True, track_running_stats=True)\n    (5): ReLU6(inplace=True)\n    (6): Conv2d(144, 32, kernel_size=(1, 1), stride=(1, 1), bias=False)\n    (7): BatchNorm2d(32, eps=1e-05, momentum=0.1, affine=True, track_running_stats=True)\n  )\n)>(reduce, oup=32)', '<bound method Module.type of InvertedResidual(\n  (conv): Sequential(\n    (0): Conv2d(32, 96, kernel_size=(1, 1), stride=(1, 1), bias=False)\n    (1): BatchNorm2d(96, eps=1e-05, momentum=0.1, affine=True, track_running_stats=True)\n    (2): ReLU6(inplace=True)\n    (3): Conv2d(96, 96, kernel_size=(3, 3), stride=(1, 1), padding=(1, 1), groups=96, bias=False)\n    (4): BatchNorm2d(96, eps=1e-05, momentum=0.1, affine=True, track_running_stats=True)\n    (5): ReLU6(inplace=True)\n    (6): Conv2d(96, 32, kernel_size=(1, 1), stride=(1, 1), bias=False)\n    (7): BatchNorm2d(32, eps=1e-05, momentum=0.1, affine=True, track_running_stats=True)\n  )\n)>(normal, oup=32)', '<bound method Module.type of InvertedResidual(\n  (conv): Sequential(\n    (0): Conv2d(32, 96, kernel_size=(1, 1), stride=(1, 1), bias=False)\n    (1): BatchNorm2d(96, eps=1e-05, momentum=0.1, affine=True, track_running_stats=True)\n    (2): ReLU6(inplace=True)\n    (3): Conv2d(96, 96, kernel_size=(7, 7), stride=(1, 1), padding=(3, 3), groups=96, bias=False)\n    (4): BatchNorm2d(96, eps=1e-05, momentum=0.1, affine=True, track_running_stats=True)\n    (5): ReLU6(inplace=True)\n    (6): Conv2d(96, 32, kernel_size=(1, 1), stride=(1, 1), bias=False)\n    (7): BatchNorm2d(32, eps=1e-05, momentum=0.1, affine=True, track_running_stats=True)\n  )\n)>(normal, oup=32)', '<bound method Module.type of InvertedResidual(\n  (conv): Sequential(\n    (0): Conv2d(32, 96, kernel_size=(1, 1), stride=(1, 1), bias=False)\n    (1): BatchNorm2d(96, eps=1e-05, momentum=0.1, affine=True, track_running_stats=True)\n    (2): ReLU6(inplace=True)\n    (3): Conv2d(96, 96, kernel_size=(3, 3), stride=(2, 2), padding=(1, 1), groups=96, bias=False)\n    (4): BatchNorm2d(96, eps=1e-05, momentum=0.1, affine=True, track_running_stats=True)\n    (5): ReLU6(inplace=True)\n    (6): Conv2d(96, 56, kernel_size=(1, 1), stride=(1, 1), bias=False)\n    (7): BatchNorm2d(56, eps=1e-05, momentum=0.1, affine=True, track_running_stats=True)\n  )\n)>(reduce, oup=56)', '<bound method Module.type of InvertedResidual(\n  (conv): Sequential(\n    (0): Conv2d(56, 168, kernel_size=(1, 1), stride=(1, 1), bias=False)\n    (1): BatchNorm2d(168, eps=1e-05, momentum=0.1, affine=True, track_running_stats=True)\n    (2): ReLU6(inplace=True)\n    (3): Conv2d(168, 168, kernel_size=(3, 3), stride=(1, 1), padding=(1, 1), groups=168, bias=False)\n    (4): BatchNorm2d(168, eps=1e-05, momentum=0.1, affine=True, track_running_stats=True)\n    (5): ReLU6(inplace=True)\n    (6): Conv2d(168, 56, kernel_size=(1, 1), stride=(1, 1), bias=False)\n    (7): BatchNorm2d(56, eps=1e-05, momentum=0.1, affine=True, track_running_stats=True)\n  )\n)>(normal, oup=56)', '<bound method Module.type of InvertedResidual(\n  (conv): Sequential(\n    (0): Conv2d(56, 168, kernel_size=(1, 1), stride=(1, 1), bias=False)\n    (1): BatchNorm2d(168, eps=1e-05, momentum=0.1, affine=True, track_running_stats=True)\n    (2): ReLU6(inplace=True)\n    (3): Conv2d(168, 168, kernel_size=(7, 7), stride=(2, 2), padding=(3, 3), groups=168, bias=False)\n    (4): BatchNorm2d(168, eps=1e-05, momentum=0.1, affine=True, track_running_stats=True)\n    (5): ReLU6(inplace=True)\n    (6): Conv2d(168, 112, kernel_size=(1, 1), stride=(1, 1), bias=False)\n    (7): BatchNorm2d(112, eps=1e-05, momentum=0.1, affine=True, track_running_stats=True)\n  )\n)>(reduce, oup=112)', '<bound method Module.type of InvertedResidual(\n  (conv): Sequential(\n    (0): Conv2d(112, 336, kernel_size=(1, 1), stride=(1, 1), bias=False)\n    (1): BatchNorm2d(336, eps=1e-05, momentum=0.1, affine=True, track_running_stats=True)\n    (2): ReLU6(inplace=True)\n    (3): Conv2d(336, 336, kernel_size=(7, 7), stride=(1, 1), padding=(3, 3), groups=336, bias=False)\n    (4): BatchNorm2d(336, eps=1e-05, momentum=0.1, affine=True, track_running_stats=True)\n    (5): ReLU6(inplace=True)\n    (6): Conv2d(336, 112, kernel_size=(1, 1), stride=(1, 1), bias=False)\n    (7): BatchNorm2d(112, eps=1e-05, momentum=0.1, affine=True, track_running_stats=True)\n  )\n)>(normal, oup=112)', '<bound method Module.type of InvertedResidual(\n  (conv): Sequential(\n    (0): Conv2d(112, 336, kernel_size=(1, 1), stride=(1, 1), bias=False)\n    (1): BatchNorm2d(336, eps=1e-05, momentum=0.1, affine=True, track_running_stats=True)\n    (2): ReLU6(inplace=True)\n    (3): Conv2d(336, 336, kernel_size=(7, 7), stride=(1, 1), padding=(3, 3), groups=336, bias=False)\n    (4): BatchNorm2d(336, eps=1e-05, momentum=0.1, affine=True, track_running_stats=True)\n    (5): ReLU6(inplace=True)\n    (6): Conv2d(336, 112, kernel_size=(1, 1), stride=(1, 1), bias=False)\n    (7): BatchNorm2d(112, eps=1e-05, momentum=0.1, affine=True, track_running_stats=True)\n  )\n)>(normal, oup=112)', '<bound method Module.type of InvertedResidual(\n  (conv): Sequential(\n    (0): Conv2d(112, 672, kernel_size=(1, 1), stride=(1, 1), bias=False)\n    (1): BatchNorm2d(672, eps=1e-05, momentum=0.1, affine=True, track_running_stats=True)\n    (2): ReLU6(inplace=True)\n    (3): Conv2d(672, 672, kernel_size=(3, 3), stride=(1, 1), padding=(1, 1), groups=672, bias=False)\n    (4): BatchNorm2d(672, eps=1e-05, momentum=0.1, affine=True, track_running_stats=True)\n    (5): ReLU6(inplace=True)\n    (6): Conv2d(672, 128, kernel_size=(1, 1), stride=(1, 1), bias=False)\n    (7): BatchNorm2d(128, eps=1e-05, momentum=0.1, affine=True, track_running_stats=True)\n  )\n)>(normal, oup=128)', '<bound method Module.type of InvertedResidual(\n  (conv): Sequential(\n    (0): Conv2d(128, 384, kernel_size=(1, 1), stride=(1, 1), bias=False)\n    (1): BatchNorm2d(384, eps=1e-05, momentum=0.1, affine=True, track_running_stats=True)\n    (2): ReLU6(inplace=True)\n    (3): Conv2d(384, 384, kernel_size=(7, 7), stride=(1, 1), padding=(3, 3), groups=384, bias=False)\n    (4): BatchNorm2d(384, eps=1e-05, momentum=0.1, affine=True, track_running_stats=True)\n    (5): ReLU6(inplace=True)\n    (6): Conv2d(384, 128, kernel_size=(1, 1), stride=(1, 1), bias=False)\n    (7): BatchNorm2d(128, eps=1e-05, momentum=0.1, affine=True, track_running_stats=True)\n  )\n)>(normal, oup=128)', '<bound method Module.type of InvertedResidual(\n  (conv): Sequential(\n    (0): Conv2d(128, 384, kernel_size=(1, 1), stride=(1, 1), bias=False)\n    (1): BatchNorm2d(384, eps=1e-05, momentum=0.1, affine=True, track_running_stats=True)\n    (2): ReLU6(inplace=True)\n    (3): Conv2d(384, 384, kernel_size=(5, 5), stride=(1, 1), padding=(2, 2), groups=384, bias=False)\n    (4): BatchNorm2d(384, eps=1e-05, momentum=0.1, affine=True, track_running_stats=True)\n    (5): ReLU6(inplace=True)\n    (6): Conv2d(384, 128, kernel_size=(1, 1), stride=(1, 1), bias=False)\n    (7): BatchNorm2d(128, eps=1e-05, momentum=0.1, affine=True, track_running_stats=True)\n  )\n)>(normal, oup=128)', '<bound method Module.type of InvertedResidual(\n  (conv): Sequential(\n    (0): Conv2d(128, 384, kernel_size=(1, 1), stride=(1, 1), bias=False)\n    (1): BatchNorm2d(384, eps=1e-05, momentum=0.1, affine=True, track_running_stats=True)\n    (2): ReLU6(inplace=True)\n    (3): Conv2d(384, 384, kernel_size=(3, 3), stride=(1, 1), padding=(1, 1), groups=384, bias=False)\n    (4): BatchNorm2d(384, eps=1e-05, momentum=0.1, affine=True, track_running_stats=True)\n    (5): ReLU6(inplace=True)\n    (6): Conv2d(384, 128, kernel_size=(1, 1), stride=(1, 1), bias=False)\n    (7): BatchNorm2d(128, eps=1e-05, momentum=0.1, affine=True, track_running_stats=True)\n  )\n)>(normal, oup=128)', '<bound method Module.type of InvertedResidual(\n  (conv): Sequential(\n    (0): Conv2d(128, 384, kernel_size=(1, 1), stride=(1, 1), bias=False)\n    (1): BatchNorm2d(384, eps=1e-05, momentum=0.1, affine=True, track_running_stats=True)\n    (2): ReLU6(inplace=True)\n    (3): Conv2d(384, 384, kernel_size=(3, 3), stride=(2, 2), padding=(1, 1), groups=384, bias=False)\n    (4): BatchNorm2d(384, eps=1e-05, momentum=0.1, affine=True, track_running_stats=True)\n    (5): ReLU6(inplace=True)\n    (6): Conv2d(384, 256, kernel_size=(1, 1), stride=(1, 1), bias=False)\n    (7): BatchNorm2d(256, eps=1e-05, momentum=0.1, affine=True, track_running_stats=True)\n  )\n)>(reduce, oup=256)', '<bound method Module.type of InvertedResidual(\n  (conv): Sequential(\n    (0): Conv2d(256, 768, kernel_size=(1, 1), stride=(1, 1), bias=False)\n    (1): BatchNorm2d(768, eps=1e-05, momentum=0.1, affine=True, track_running_stats=True)\n    (2): ReLU6(inplace=True)\n    (3): Conv2d(768, 768, kernel_size=(7, 7), stride=(1, 1), padding=(3, 3), groups=768, bias=False)\n    (4): BatchNorm2d(768, eps=1e-05, momentum=0.1, affine=True, track_running_stats=True)\n    (5): ReLU6(inplace=True)\n    (6): Conv2d(768, 256, kernel_size=(1, 1), stride=(1, 1), bias=False)\n    (7): BatchNorm2d(256, eps=1e-05, momentum=0.1, affine=True, track_running_stats=True)\n  )\n)>(normal, oup=256)', '<bound method Module.type of InvertedResidual(\n  (conv): Sequential(\n    (0): Conv2d(256, 768, kernel_size=(1, 1), stride=(1, 1), bias=False)\n    (1): BatchNorm2d(768, eps=1e-05, momentum=0.1, affine=True, track_running_stats=True)\n    (2): ReLU6(inplace=True)\n    (3): Conv2d(768, 768, kernel_size=(3, 3), stride=(1, 1), padding=(1, 1), groups=768, bias=False)\n    (4): BatchNorm2d(768, eps=1e-05, momentum=0.1, affine=True, track_running_stats=True)\n    (5): ReLU6(inplace=True)\n    (6): Conv2d(768, 256, kernel_size=(1, 1), stride=(1, 1), bias=False)\n    (7): BatchNorm2d(256, eps=1e-05, momentum=0.1, affine=True, track_running_stats=True)\n  )\n)>(normal, oup=256)', '<bound method Module.type of InvertedResidual(\n  (conv): Sequential(\n    (0): Conv2d(256, 768, kernel_size=(1, 1), stride=(1, 1), bias=False)\n    (1): BatchNorm2d(768, eps=1e-05, momentum=0.1, affine=True, track_running_stats=True)\n    (2): ReLU6(inplace=True)\n    (3): Conv2d(768, 768, kernel_size=(5, 5), stride=(1, 1), padding=(2, 2), groups=768, bias=False)\n    (4): BatchNorm2d(768, eps=1e-05, momentum=0.1, affine=True, track_running_stats=True)\n    (5): ReLU6(inplace=True)\n    (6): Conv2d(768, 256, kernel_size=(1, 1), stride=(1, 1), bias=False)\n    (7): BatchNorm2d(256, eps=1e-05, momentum=0.1, affine=True, track_running_stats=True)\n  )\n)>(normal, oup=256)', '<bound method Module.type of InvertedResidual(\n  (conv): Sequential(\n    (0): Conv2d(256, 768, kernel_size=(1, 1), stride=(1, 1), bias=False)\n    (1): BatchNorm2d(768, eps=1e-05, momentum=0.1, affine=True, track_running_stats=True)\n    (2): ReLU6(inplace=True)\n    (3): Conv2d(768, 768, kernel_size=(5, 5), stride=(1, 1), padding=(2, 2), groups=768, bias=False)\n    (4): BatchNorm2d(768, eps=1e-05, momentum=0.1, affine=True, track_running_stats=True)\n    (5): ReLU6(inplace=True)\n    (6): Conv2d(768, 432, kernel_size=(1, 1), stride=(1, 1), bias=False)\n    (7): BatchNorm2d(432, eps=1e-05, momentum=0.1, affine=True, track_running_stats=True)\n  )\n)>(normal, oup=432)']
2021-12-13 14:35:20,736 rngs:[3, -1, 0, 4, 0, -1, -1, 0, 4, -1, 4, 4, 1, 4, 2, 0, 0, 4, 0, 2, 2], arch:['<bound method Module.type of InvertedResidual(\n  (conv): Sequential(\n    (0): Conv2d(24, 144, kernel_size=(1, 1), stride=(1, 1), bias=False)\n    (1): BatchNorm2d(144, eps=1e-05, momentum=0.1, affine=True, track_running_stats=True)\n    (2): ReLU6(inplace=True)\n    (3): Conv2d(144, 144, kernel_size=(5, 5), stride=(2, 2), padding=(2, 2), groups=144, bias=False)\n    (4): BatchNorm2d(144, eps=1e-05, momentum=0.1, affine=True, track_running_stats=True)\n    (5): ReLU6(inplace=True)\n    (6): Conv2d(144, 32, kernel_size=(1, 1), stride=(1, 1), bias=False)\n    (7): BatchNorm2d(32, eps=1e-05, momentum=0.1, affine=True, track_running_stats=True)\n  )\n)>(reduce, oup=32)', '<bound method Module.type of InvertedResidual(\n  (conv): Sequential(\n    (0): Conv2d(32, 96, kernel_size=(1, 1), stride=(1, 1), bias=False)\n    (1): BatchNorm2d(96, eps=1e-05, momentum=0.1, affine=True, track_running_stats=True)\n    (2): ReLU6(inplace=True)\n    (3): Conv2d(96, 96, kernel_size=(3, 3), stride=(1, 1), padding=(1, 1), groups=96, bias=False)\n    (4): BatchNorm2d(96, eps=1e-05, momentum=0.1, affine=True, track_running_stats=True)\n    (5): ReLU6(inplace=True)\n    (6): Conv2d(96, 32, kernel_size=(1, 1), stride=(1, 1), bias=False)\n    (7): BatchNorm2d(32, eps=1e-05, momentum=0.1, affine=True, track_running_stats=True)\n  )\n)>(normal, oup=32)', '<bound method Module.type of InvertedResidual(\n  (conv): Sequential(\n    (0): Conv2d(32, 96, kernel_size=(1, 1), stride=(1, 1), bias=False)\n    (1): BatchNorm2d(96, eps=1e-05, momentum=0.1, affine=True, track_running_stats=True)\n    (2): ReLU6(inplace=True)\n    (3): Conv2d(96, 96, kernel_size=(7, 7), stride=(1, 1), padding=(3, 3), groups=96, bias=False)\n    (4): BatchNorm2d(96, eps=1e-05, momentum=0.1, affine=True, track_running_stats=True)\n    (5): ReLU6(inplace=True)\n    (6): Conv2d(96, 32, kernel_size=(1, 1), stride=(1, 1), bias=False)\n    (7): BatchNorm2d(32, eps=1e-05, momentum=0.1, affine=True, track_running_stats=True)\n  )\n)>(normal, oup=32)', '<bound method Module.type of InvertedResidual(\n  (conv): Sequential(\n    (0): Conv2d(32, 96, kernel_size=(1, 1), stride=(1, 1), bias=False)\n    (1): BatchNorm2d(96, eps=1e-05, momentum=0.1, affine=True, track_running_stats=True)\n    (2): ReLU6(inplace=True)\n    (3): Conv2d(96, 96, kernel_size=(3, 3), stride=(2, 2), padding=(1, 1), groups=96, bias=False)\n    (4): BatchNorm2d(96, eps=1e-05, momentum=0.1, affine=True, track_running_stats=True)\n    (5): ReLU6(inplace=True)\n    (6): Conv2d(96, 56, kernel_size=(1, 1), stride=(1, 1), bias=False)\n    (7): BatchNorm2d(56, eps=1e-05, momentum=0.1, affine=True, track_running_stats=True)\n  )\n)>(reduce, oup=56)', '<bound method Module.type of InvertedResidual(\n  (conv): Sequential(\n    (0): Conv2d(56, 168, kernel_size=(1, 1), stride=(1, 1), bias=False)\n    (1): BatchNorm2d(168, eps=1e-05, momentum=0.1, affine=True, track_running_stats=True)\n    (2): ReLU6(inplace=True)\n    (3): Conv2d(168, 168, kernel_size=(3, 3), stride=(1, 1), padding=(1, 1), groups=168, bias=False)\n    (4): BatchNorm2d(168, eps=1e-05, momentum=0.1, affine=True, track_running_stats=True)\n    (5): ReLU6(inplace=True)\n    (6): Conv2d(168, 56, kernel_size=(1, 1), stride=(1, 1), bias=False)\n    (7): BatchNorm2d(56, eps=1e-05, momentum=0.1, affine=True, track_running_stats=True)\n  )\n)>(normal, oup=56)', '<bound method Module.type of InvertedResidual(\n  (conv): Sequential(\n    (0): Conv2d(56, 168, kernel_size=(1, 1), stride=(1, 1), bias=False)\n    (1): BatchNorm2d(168, eps=1e-05, momentum=0.1, affine=True, track_running_stats=True)\n    (2): ReLU6(inplace=True)\n    (3): Conv2d(168, 168, kernel_size=(7, 7), stride=(2, 2), padding=(3, 3), groups=168, bias=False)\n    (4): BatchNorm2d(168, eps=1e-05, momentum=0.1, affine=True, track_running_stats=True)\n    (5): ReLU6(inplace=True)\n    (6): Conv2d(168, 112, kernel_size=(1, 1), stride=(1, 1), bias=False)\n    (7): BatchNorm2d(112, eps=1e-05, momentum=0.1, affine=True, track_running_stats=True)\n  )\n)>(reduce, oup=112)', '<bound method Module.type of InvertedResidual(\n  (conv): Sequential(\n    (0): Conv2d(112, 336, kernel_size=(1, 1), stride=(1, 1), bias=False)\n    (1): BatchNorm2d(336, eps=1e-05, momentum=0.1, affine=True, track_running_stats=True)\n    (2): ReLU6(inplace=True)\n    (3): Conv2d(336, 336, kernel_size=(7, 7), stride=(1, 1), padding=(3, 3), groups=336, bias=False)\n    (4): BatchNorm2d(336, eps=1e-05, momentum=0.1, affine=True, track_running_stats=True)\n    (5): ReLU6(inplace=True)\n    (6): Conv2d(336, 112, kernel_size=(1, 1), stride=(1, 1), bias=False)\n    (7): BatchNorm2d(112, eps=1e-05, momentum=0.1, affine=True, track_running_stats=True)\n  )\n)>(normal, oup=112)', '<bound method Module.type of InvertedResidual(\n  (conv): Sequential(\n    (0): Conv2d(112, 336, kernel_size=(1, 1), stride=(1, 1), bias=False)\n    (1): BatchNorm2d(336, eps=1e-05, momentum=0.1, affine=True, track_running_stats=True)\n    (2): ReLU6(inplace=True)\n    (3): Conv2d(336, 336, kernel_size=(7, 7), stride=(1, 1), padding=(3, 3), groups=336, bias=False)\n    (4): BatchNorm2d(336, eps=1e-05, momentum=0.1, affine=True, track_running_stats=True)\n    (5): ReLU6(inplace=True)\n    (6): Conv2d(336, 112, kernel_size=(1, 1), stride=(1, 1), bias=False)\n    (7): BatchNorm2d(112, eps=1e-05, momentum=0.1, affine=True, track_running_stats=True)\n  )\n)>(normal, oup=112)', '<bound method Module.type of InvertedResidual(\n  (conv): Sequential(\n    (0): Conv2d(112, 672, kernel_size=(1, 1), stride=(1, 1), bias=False)\n    (1): BatchNorm2d(672, eps=1e-05, momentum=0.1, affine=True, track_running_stats=True)\n    (2): ReLU6(inplace=True)\n    (3): Conv2d(672, 672, kernel_size=(3, 3), stride=(1, 1), padding=(1, 1), groups=672, bias=False)\n    (4): BatchNorm2d(672, eps=1e-05, momentum=0.1, affine=True, track_running_stats=True)\n    (5): ReLU6(inplace=True)\n    (6): Conv2d(672, 128, kernel_size=(1, 1), stride=(1, 1), bias=False)\n    (7): BatchNorm2d(128, eps=1e-05, momentum=0.1, affine=True, track_running_stats=True)\n  )\n)>(normal, oup=128)', '<bound method Module.type of InvertedResidual(\n  (conv): Sequential(\n    (0): Conv2d(128, 384, kernel_size=(1, 1), stride=(1, 1), bias=False)\n    (1): BatchNorm2d(384, eps=1e-05, momentum=0.1, affine=True, track_running_stats=True)\n    (2): ReLU6(inplace=True)\n    (3): Conv2d(384, 384, kernel_size=(7, 7), stride=(1, 1), padding=(3, 3), groups=384, bias=False)\n    (4): BatchNorm2d(384, eps=1e-05, momentum=0.1, affine=True, track_running_stats=True)\n    (5): ReLU6(inplace=True)\n    (6): Conv2d(384, 128, kernel_size=(1, 1), stride=(1, 1), bias=False)\n    (7): BatchNorm2d(128, eps=1e-05, momentum=0.1, affine=True, track_running_stats=True)\n  )\n)>(normal, oup=128)', '<bound method Module.type of InvertedResidual(\n  (conv): Sequential(\n    (0): Conv2d(128, 384, kernel_size=(1, 1), stride=(1, 1), bias=False)\n    (1): BatchNorm2d(384, eps=1e-05, momentum=0.1, affine=True, track_running_stats=True)\n    (2): ReLU6(inplace=True)\n    (3): Conv2d(384, 384, kernel_size=(5, 5), stride=(1, 1), padding=(2, 2), groups=384, bias=False)\n    (4): BatchNorm2d(384, eps=1e-05, momentum=0.1, affine=True, track_running_stats=True)\n    (5): ReLU6(inplace=True)\n    (6): Conv2d(384, 128, kernel_size=(1, 1), stride=(1, 1), bias=False)\n    (7): BatchNorm2d(128, eps=1e-05, momentum=0.1, affine=True, track_running_stats=True)\n  )\n)>(normal, oup=128)', '<bound method Module.type of InvertedResidual(\n  (conv): Sequential(\n    (0): Conv2d(128, 384, kernel_size=(1, 1), stride=(1, 1), bias=False)\n    (1): BatchNorm2d(384, eps=1e-05, momentum=0.1, affine=True, track_running_stats=True)\n    (2): ReLU6(inplace=True)\n    (3): Conv2d(384, 384, kernel_size=(3, 3), stride=(1, 1), padding=(1, 1), groups=384, bias=False)\n    (4): BatchNorm2d(384, eps=1e-05, momentum=0.1, affine=True, track_running_stats=True)\n    (5): ReLU6(inplace=True)\n    (6): Conv2d(384, 128, kernel_size=(1, 1), stride=(1, 1), bias=False)\n    (7): BatchNorm2d(128, eps=1e-05, momentum=0.1, affine=True, track_running_stats=True)\n  )\n)>(normal, oup=128)', '<bound method Module.type of InvertedResidual(\n  (conv): Sequential(\n    (0): Conv2d(128, 384, kernel_size=(1, 1), stride=(1, 1), bias=False)\n    (1): BatchNorm2d(384, eps=1e-05, momentum=0.1, affine=True, track_running_stats=True)\n    (2): ReLU6(inplace=True)\n    (3): Conv2d(384, 384, kernel_size=(3, 3), stride=(2, 2), padding=(1, 1), groups=384, bias=False)\n    (4): BatchNorm2d(384, eps=1e-05, momentum=0.1, affine=True, track_running_stats=True)\n    (5): ReLU6(inplace=True)\n    (6): Conv2d(384, 256, kernel_size=(1, 1), stride=(1, 1), bias=False)\n    (7): BatchNorm2d(256, eps=1e-05, momentum=0.1, affine=True, track_running_stats=True)\n  )\n)>(reduce, oup=256)', '<bound method Module.type of InvertedResidual(\n  (conv): Sequential(\n    (0): Conv2d(256, 768, kernel_size=(1, 1), stride=(1, 1), bias=False)\n    (1): BatchNorm2d(768, eps=1e-05, momentum=0.1, affine=True, track_running_stats=True)\n    (2): ReLU6(inplace=True)\n    (3): Conv2d(768, 768, kernel_size=(7, 7), stride=(1, 1), padding=(3, 3), groups=768, bias=False)\n    (4): BatchNorm2d(768, eps=1e-05, momentum=0.1, affine=True, track_running_stats=True)\n    (5): ReLU6(inplace=True)\n    (6): Conv2d(768, 256, kernel_size=(1, 1), stride=(1, 1), bias=False)\n    (7): BatchNorm2d(256, eps=1e-05, momentum=0.1, affine=True, track_running_stats=True)\n  )\n)>(normal, oup=256)', '<bound method Module.type of InvertedResidual(\n  (conv): Sequential(\n    (0): Conv2d(256, 768, kernel_size=(1, 1), stride=(1, 1), bias=False)\n    (1): BatchNorm2d(768, eps=1e-05, momentum=0.1, affine=True, track_running_stats=True)\n    (2): ReLU6(inplace=True)\n    (3): Conv2d(768, 768, kernel_size=(3, 3), stride=(1, 1), padding=(1, 1), groups=768, bias=False)\n    (4): BatchNorm2d(768, eps=1e-05, momentum=0.1, affine=True, track_running_stats=True)\n    (5): ReLU6(inplace=True)\n    (6): Conv2d(768, 256, kernel_size=(1, 1), stride=(1, 1), bias=False)\n    (7): BatchNorm2d(256, eps=1e-05, momentum=0.1, affine=True, track_running_stats=True)\n  )\n)>(normal, oup=256)', '<bound method Module.type of InvertedResidual(\n  (conv): Sequential(\n    (0): Conv2d(256, 768, kernel_size=(1, 1), stride=(1, 1), bias=False)\n    (1): BatchNorm2d(768, eps=1e-05, momentum=0.1, affine=True, track_running_stats=True)\n    (2): ReLU6(inplace=True)\n    (3): Conv2d(768, 768, kernel_size=(5, 5), stride=(1, 1), padding=(2, 2), groups=768, bias=False)\n    (4): BatchNorm2d(768, eps=1e-05, momentum=0.1, affine=True, track_running_stats=True)\n    (5): ReLU6(inplace=True)\n    (6): Conv2d(768, 256, kernel_size=(1, 1), stride=(1, 1), bias=False)\n    (7): BatchNorm2d(256, eps=1e-05, momentum=0.1, affine=True, track_running_stats=True)\n  )\n)>(normal, oup=256)', '<bound method Module.type of InvertedResidual(\n  (conv): Sequential(\n    (0): Conv2d(256, 768, kernel_size=(1, 1), stride=(1, 1), bias=False)\n    (1): BatchNorm2d(768, eps=1e-05, momentum=0.1, affine=True, track_running_stats=True)\n    (2): ReLU6(inplace=True)\n    (3): Conv2d(768, 768, kernel_size=(5, 5), stride=(1, 1), padding=(2, 2), groups=768, bias=False)\n    (4): BatchNorm2d(768, eps=1e-05, momentum=0.1, affine=True, track_running_stats=True)\n    (5): ReLU6(inplace=True)\n    (6): Conv2d(768, 432, kernel_size=(1, 1), stride=(1, 1), bias=False)\n    (7): BatchNorm2d(432, eps=1e-05, momentum=0.1, affine=True, track_running_stats=True)\n  )\n)>(normal, oup=432)']
2021-12-13 14:35:20,736 rngs:[3, -1, 0, 4, 0, -1, -1, 0, 4, -1, 4, 4, 1, 4, 2, 0, 0, 4, 0, 2, 2], arch:['<bound method Module.type of InvertedResidual(\n  (conv): Sequential(\n    (0): Conv2d(24, 144, kernel_size=(1, 1), stride=(1, 1), bias=False)\n    (1): BatchNorm2d(144, eps=1e-05, momentum=0.1, affine=True, track_running_stats=True)\n    (2): ReLU6(inplace=True)\n    (3): Conv2d(144, 144, kernel_size=(5, 5), stride=(2, 2), padding=(2, 2), groups=144, bias=False)\n    (4): BatchNorm2d(144, eps=1e-05, momentum=0.1, affine=True, track_running_stats=True)\n    (5): ReLU6(inplace=True)\n    (6): Conv2d(144, 32, kernel_size=(1, 1), stride=(1, 1), bias=False)\n    (7): BatchNorm2d(32, eps=1e-05, momentum=0.1, affine=True, track_running_stats=True)\n  )\n)>(reduce, oup=32)', '<bound method Module.type of InvertedResidual(\n  (conv): Sequential(\n    (0): Conv2d(32, 96, kernel_size=(1, 1), stride=(1, 1), bias=False)\n    (1): BatchNorm2d(96, eps=1e-05, momentum=0.1, affine=True, track_running_stats=True)\n    (2): ReLU6(inplace=True)\n    (3): Conv2d(96, 96, kernel_size=(3, 3), stride=(1, 1), padding=(1, 1), groups=96, bias=False)\n    (4): BatchNorm2d(96, eps=1e-05, momentum=0.1, affine=True, track_running_stats=True)\n    (5): ReLU6(inplace=True)\n    (6): Conv2d(96, 32, kernel_size=(1, 1), stride=(1, 1), bias=False)\n    (7): BatchNorm2d(32, eps=1e-05, momentum=0.1, affine=True, track_running_stats=True)\n  )\n)>(normal, oup=32)', '<bound method Module.type of InvertedResidual(\n  (conv): Sequential(\n    (0): Conv2d(32, 96, kernel_size=(1, 1), stride=(1, 1), bias=False)\n    (1): BatchNorm2d(96, eps=1e-05, momentum=0.1, affine=True, track_running_stats=True)\n    (2): ReLU6(inplace=True)\n    (3): Conv2d(96, 96, kernel_size=(7, 7), stride=(1, 1), padding=(3, 3), groups=96, bias=False)\n    (4): BatchNorm2d(96, eps=1e-05, momentum=0.1, affine=True, track_running_stats=True)\n    (5): ReLU6(inplace=True)\n    (6): Conv2d(96, 32, kernel_size=(1, 1), stride=(1, 1), bias=False)\n    (7): BatchNorm2d(32, eps=1e-05, momentum=0.1, affine=True, track_running_stats=True)\n  )\n)>(normal, oup=32)', '<bound method Module.type of InvertedResidual(\n  (conv): Sequential(\n    (0): Conv2d(32, 96, kernel_size=(1, 1), stride=(1, 1), bias=False)\n    (1): BatchNorm2d(96, eps=1e-05, momentum=0.1, affine=True, track_running_stats=True)\n    (2): ReLU6(inplace=True)\n    (3): Conv2d(96, 96, kernel_size=(3, 3), stride=(2, 2), padding=(1, 1), groups=96, bias=False)\n    (4): BatchNorm2d(96, eps=1e-05, momentum=0.1, affine=True, track_running_stats=True)\n    (5): ReLU6(inplace=True)\n    (6): Conv2d(96, 56, kernel_size=(1, 1), stride=(1, 1), bias=False)\n    (7): BatchNorm2d(56, eps=1e-05, momentum=0.1, affine=True, track_running_stats=True)\n  )\n)>(reduce, oup=56)', '<bound method Module.type of InvertedResidual(\n  (conv): Sequential(\n    (0): Conv2d(56, 168, kernel_size=(1, 1), stride=(1, 1), bias=False)\n    (1): BatchNorm2d(168, eps=1e-05, momentum=0.1, affine=True, track_running_stats=True)\n    (2): ReLU6(inplace=True)\n    (3): Conv2d(168, 168, kernel_size=(3, 3), stride=(1, 1), padding=(1, 1), groups=168, bias=False)\n    (4): BatchNorm2d(168, eps=1e-05, momentum=0.1, affine=True, track_running_stats=True)\n    (5): ReLU6(inplace=True)\n    (6): Conv2d(168, 56, kernel_size=(1, 1), stride=(1, 1), bias=False)\n    (7): BatchNorm2d(56, eps=1e-05, momentum=0.1, affine=True, track_running_stats=True)\n  )\n)>(normal, oup=56)', '<bound method Module.type of InvertedResidual(\n  (conv): Sequential(\n    (0): Conv2d(56, 168, kernel_size=(1, 1), stride=(1, 1), bias=False)\n    (1): BatchNorm2d(168, eps=1e-05, momentum=0.1, affine=True, track_running_stats=True)\n    (2): ReLU6(inplace=True)\n    (3): Conv2d(168, 168, kernel_size=(7, 7), stride=(2, 2), padding=(3, 3), groups=168, bias=False)\n    (4): BatchNorm2d(168, eps=1e-05, momentum=0.1, affine=True, track_running_stats=True)\n    (5): ReLU6(inplace=True)\n    (6): Conv2d(168, 112, kernel_size=(1, 1), stride=(1, 1), bias=False)\n    (7): BatchNorm2d(112, eps=1e-05, momentum=0.1, affine=True, track_running_stats=True)\n  )\n)>(reduce, oup=112)', '<bound method Module.type of InvertedResidual(\n  (conv): Sequential(\n    (0): Conv2d(112, 336, kernel_size=(1, 1), stride=(1, 1), bias=False)\n    (1): BatchNorm2d(336, eps=1e-05, momentum=0.1, affine=True, track_running_stats=True)\n    (2): ReLU6(inplace=True)\n    (3): Conv2d(336, 336, kernel_size=(7, 7), stride=(1, 1), padding=(3, 3), groups=336, bias=False)\n    (4): BatchNorm2d(336, eps=1e-05, momentum=0.1, affine=True, track_running_stats=True)\n    (5): ReLU6(inplace=True)\n    (6): Conv2d(336, 112, kernel_size=(1, 1), stride=(1, 1), bias=False)\n    (7): BatchNorm2d(112, eps=1e-05, momentum=0.1, affine=True, track_running_stats=True)\n  )\n)>(normal, oup=112)', '<bound method Module.type of InvertedResidual(\n  (conv): Sequential(\n    (0): Conv2d(112, 336, kernel_size=(1, 1), stride=(1, 1), bias=False)\n    (1): BatchNorm2d(336, eps=1e-05, momentum=0.1, affine=True, track_running_stats=True)\n    (2): ReLU6(inplace=True)\n    (3): Conv2d(336, 336, kernel_size=(7, 7), stride=(1, 1), padding=(3, 3), groups=336, bias=False)\n    (4): BatchNorm2d(336, eps=1e-05, momentum=0.1, affine=True, track_running_stats=True)\n    (5): ReLU6(inplace=True)\n    (6): Conv2d(336, 112, kernel_size=(1, 1), stride=(1, 1), bias=False)\n    (7): BatchNorm2d(112, eps=1e-05, momentum=0.1, affine=True, track_running_stats=True)\n  )\n)>(normal, oup=112)', '<bound method Module.type of InvertedResidual(\n  (conv): Sequential(\n    (0): Conv2d(112, 672, kernel_size=(1, 1), stride=(1, 1), bias=False)\n    (1): BatchNorm2d(672, eps=1e-05, momentum=0.1, affine=True, track_running_stats=True)\n    (2): ReLU6(inplace=True)\n    (3): Conv2d(672, 672, kernel_size=(3, 3), stride=(1, 1), padding=(1, 1), groups=672, bias=False)\n    (4): BatchNorm2d(672, eps=1e-05, momentum=0.1, affine=True, track_running_stats=True)\n    (5): ReLU6(inplace=True)\n    (6): Conv2d(672, 128, kernel_size=(1, 1), stride=(1, 1), bias=False)\n    (7): BatchNorm2d(128, eps=1e-05, momentum=0.1, affine=True, track_running_stats=True)\n  )\n)>(normal, oup=128)', '<bound method Module.type of InvertedResidual(\n  (conv): Sequential(\n    (0): Conv2d(128, 384, kernel_size=(1, 1), stride=(1, 1), bias=False)\n    (1): BatchNorm2d(384, eps=1e-05, momentum=0.1, affine=True, track_running_stats=True)\n    (2): ReLU6(inplace=True)\n    (3): Conv2d(384, 384, kernel_size=(7, 7), stride=(1, 1), padding=(3, 3), groups=384, bias=False)\n    (4): BatchNorm2d(384, eps=1e-05, momentum=0.1, affine=True, track_running_stats=True)\n    (5): ReLU6(inplace=True)\n    (6): Conv2d(384, 128, kernel_size=(1, 1), stride=(1, 1), bias=False)\n    (7): BatchNorm2d(128, eps=1e-05, momentum=0.1, affine=True, track_running_stats=True)\n  )\n)>(normal, oup=128)', '<bound method Module.type of InvertedResidual(\n  (conv): Sequential(\n    (0): Conv2d(128, 384, kernel_size=(1, 1), stride=(1, 1), bias=False)\n    (1): BatchNorm2d(384, eps=1e-05, momentum=0.1, affine=True, track_running_stats=True)\n    (2): ReLU6(inplace=True)\n    (3): Conv2d(384, 384, kernel_size=(5, 5), stride=(1, 1), padding=(2, 2), groups=384, bias=False)\n    (4): BatchNorm2d(384, eps=1e-05, momentum=0.1, affine=True, track_running_stats=True)\n    (5): ReLU6(inplace=True)\n    (6): Conv2d(384, 128, kernel_size=(1, 1), stride=(1, 1), bias=False)\n    (7): BatchNorm2d(128, eps=1e-05, momentum=0.1, affine=True, track_running_stats=True)\n  )\n)>(normal, oup=128)', '<bound method Module.type of InvertedResidual(\n  (conv): Sequential(\n    (0): Conv2d(128, 384, kernel_size=(1, 1), stride=(1, 1), bias=False)\n    (1): BatchNorm2d(384, eps=1e-05, momentum=0.1, affine=True, track_running_stats=True)\n    (2): ReLU6(inplace=True)\n    (3): Conv2d(384, 384, kernel_size=(3, 3), stride=(1, 1), padding=(1, 1), groups=384, bias=False)\n    (4): BatchNorm2d(384, eps=1e-05, momentum=0.1, affine=True, track_running_stats=True)\n    (5): ReLU6(inplace=True)\n    (6): Conv2d(384, 128, kernel_size=(1, 1), stride=(1, 1), bias=False)\n    (7): BatchNorm2d(128, eps=1e-05, momentum=0.1, affine=True, track_running_stats=True)\n  )\n)>(normal, oup=128)', '<bound method Module.type of InvertedResidual(\n  (conv): Sequential(\n    (0): Conv2d(128, 384, kernel_size=(1, 1), stride=(1, 1), bias=False)\n    (1): BatchNorm2d(384, eps=1e-05, momentum=0.1, affine=True, track_running_stats=True)\n    (2): ReLU6(inplace=True)\n    (3): Conv2d(384, 384, kernel_size=(3, 3), stride=(2, 2), padding=(1, 1), groups=384, bias=False)\n    (4): BatchNorm2d(384, eps=1e-05, momentum=0.1, affine=True, track_running_stats=True)\n    (5): ReLU6(inplace=True)\n    (6): Conv2d(384, 256, kernel_size=(1, 1), stride=(1, 1), bias=False)\n    (7): BatchNorm2d(256, eps=1e-05, momentum=0.1, affine=True, track_running_stats=True)\n  )\n)>(reduce, oup=256)', '<bound method Module.type of InvertedResidual(\n  (conv): Sequential(\n    (0): Conv2d(256, 768, kernel_size=(1, 1), stride=(1, 1), bias=False)\n    (1): BatchNorm2d(768, eps=1e-05, momentum=0.1, affine=True, track_running_stats=True)\n    (2): ReLU6(inplace=True)\n    (3): Conv2d(768, 768, kernel_size=(7, 7), stride=(1, 1), padding=(3, 3), groups=768, bias=False)\n    (4): BatchNorm2d(768, eps=1e-05, momentum=0.1, affine=True, track_running_stats=True)\n    (5): ReLU6(inplace=True)\n    (6): Conv2d(768, 256, kernel_size=(1, 1), stride=(1, 1), bias=False)\n    (7): BatchNorm2d(256, eps=1e-05, momentum=0.1, affine=True, track_running_stats=True)\n  )\n)>(normal, oup=256)', '<bound method Module.type of InvertedResidual(\n  (conv): Sequential(\n    (0): Conv2d(256, 768, kernel_size=(1, 1), stride=(1, 1), bias=False)\n    (1): BatchNorm2d(768, eps=1e-05, momentum=0.1, affine=True, track_running_stats=True)\n    (2): ReLU6(inplace=True)\n    (3): Conv2d(768, 768, kernel_size=(3, 3), stride=(1, 1), padding=(1, 1), groups=768, bias=False)\n    (4): BatchNorm2d(768, eps=1e-05, momentum=0.1, affine=True, track_running_stats=True)\n    (5): ReLU6(inplace=True)\n    (6): Conv2d(768, 256, kernel_size=(1, 1), stride=(1, 1), bias=False)\n    (7): BatchNorm2d(256, eps=1e-05, momentum=0.1, affine=True, track_running_stats=True)\n  )\n)>(normal, oup=256)', '<bound method Module.type of InvertedResidual(\n  (conv): Sequential(\n    (0): Conv2d(256, 768, kernel_size=(1, 1), stride=(1, 1), bias=False)\n    (1): BatchNorm2d(768, eps=1e-05, momentum=0.1, affine=True, track_running_stats=True)\n    (2): ReLU6(inplace=True)\n    (3): Conv2d(768, 768, kernel_size=(5, 5), stride=(1, 1), padding=(2, 2), groups=768, bias=False)\n    (4): BatchNorm2d(768, eps=1e-05, momentum=0.1, affine=True, track_running_stats=True)\n    (5): ReLU6(inplace=True)\n    (6): Conv2d(768, 256, kernel_size=(1, 1), stride=(1, 1), bias=False)\n    (7): BatchNorm2d(256, eps=1e-05, momentum=0.1, affine=True, track_running_stats=True)\n  )\n)>(normal, oup=256)', '<bound method Module.type of InvertedResidual(\n  (conv): Sequential(\n    (0): Conv2d(256, 768, kernel_size=(1, 1), stride=(1, 1), bias=False)\n    (1): BatchNorm2d(768, eps=1e-05, momentum=0.1, affine=True, track_running_stats=True)\n    (2): ReLU6(inplace=True)\n    (3): Conv2d(768, 768, kernel_size=(5, 5), stride=(1, 1), padding=(2, 2), groups=768, bias=False)\n    (4): BatchNorm2d(768, eps=1e-05, momentum=0.1, affine=True, track_running_stats=True)\n    (5): ReLU6(inplace=True)\n    (6): Conv2d(768, 432, kernel_size=(1, 1), stride=(1, 1), bias=False)\n    (7): BatchNorm2d(432, eps=1e-05, momentum=0.1, affine=True, track_running_stats=True)\n  )\n)>(normal, oup=432)']
2021-12-13 14:35:20,736 rngs:[3, -1, 0, 4, 0, -1, -1, 0, 4, -1, 4, 4, 1, 4, 2, 0, 0, 4, 0, 2, 2], arch:['<bound method Module.type of InvertedResidual(\n  (conv): Sequential(\n    (0): Conv2d(24, 144, kernel_size=(1, 1), stride=(1, 1), bias=False)\n    (1): BatchNorm2d(144, eps=1e-05, momentum=0.1, affine=True, track_running_stats=True)\n    (2): ReLU6(inplace=True)\n    (3): Conv2d(144, 144, kernel_size=(5, 5), stride=(2, 2), padding=(2, 2), groups=144, bias=False)\n    (4): BatchNorm2d(144, eps=1e-05, momentum=0.1, affine=True, track_running_stats=True)\n    (5): ReLU6(inplace=True)\n    (6): Conv2d(144, 32, kernel_size=(1, 1), stride=(1, 1), bias=False)\n    (7): BatchNorm2d(32, eps=1e-05, momentum=0.1, affine=True, track_running_stats=True)\n  )\n)>(reduce, oup=32)', '<bound method Module.type of InvertedResidual(\n  (conv): Sequential(\n    (0): Conv2d(32, 96, kernel_size=(1, 1), stride=(1, 1), bias=False)\n    (1): BatchNorm2d(96, eps=1e-05, momentum=0.1, affine=True, track_running_stats=True)\n    (2): ReLU6(inplace=True)\n    (3): Conv2d(96, 96, kernel_size=(3, 3), stride=(1, 1), padding=(1, 1), groups=96, bias=False)\n    (4): BatchNorm2d(96, eps=1e-05, momentum=0.1, affine=True, track_running_stats=True)\n    (5): ReLU6(inplace=True)\n    (6): Conv2d(96, 32, kernel_size=(1, 1), stride=(1, 1), bias=False)\n    (7): BatchNorm2d(32, eps=1e-05, momentum=0.1, affine=True, track_running_stats=True)\n  )\n)>(normal, oup=32)', '<bound method Module.type of InvertedResidual(\n  (conv): Sequential(\n    (0): Conv2d(32, 96, kernel_size=(1, 1), stride=(1, 1), bias=False)\n    (1): BatchNorm2d(96, eps=1e-05, momentum=0.1, affine=True, track_running_stats=True)\n    (2): ReLU6(inplace=True)\n    (3): Conv2d(96, 96, kernel_size=(7, 7), stride=(1, 1), padding=(3, 3), groups=96, bias=False)\n    (4): BatchNorm2d(96, eps=1e-05, momentum=0.1, affine=True, track_running_stats=True)\n    (5): ReLU6(inplace=True)\n    (6): Conv2d(96, 32, kernel_size=(1, 1), stride=(1, 1), bias=False)\n    (7): BatchNorm2d(32, eps=1e-05, momentum=0.1, affine=True, track_running_stats=True)\n  )\n)>(normal, oup=32)', '<bound method Module.type of InvertedResidual(\n  (conv): Sequential(\n    (0): Conv2d(32, 96, kernel_size=(1, 1), stride=(1, 1), bias=False)\n    (1): BatchNorm2d(96, eps=1e-05, momentum=0.1, affine=True, track_running_stats=True)\n    (2): ReLU6(inplace=True)\n    (3): Conv2d(96, 96, kernel_size=(3, 3), stride=(2, 2), padding=(1, 1), groups=96, bias=False)\n    (4): BatchNorm2d(96, eps=1e-05, momentum=0.1, affine=True, track_running_stats=True)\n    (5): ReLU6(inplace=True)\n    (6): Conv2d(96, 56, kernel_size=(1, 1), stride=(1, 1), bias=False)\n    (7): BatchNorm2d(56, eps=1e-05, momentum=0.1, affine=True, track_running_stats=True)\n  )\n)>(reduce, oup=56)', '<bound method Module.type of InvertedResidual(\n  (conv): Sequential(\n    (0): Conv2d(56, 168, kernel_size=(1, 1), stride=(1, 1), bias=False)\n    (1): BatchNorm2d(168, eps=1e-05, momentum=0.1, affine=True, track_running_stats=True)\n    (2): ReLU6(inplace=True)\n    (3): Conv2d(168, 168, kernel_size=(3, 3), stride=(1, 1), padding=(1, 1), groups=168, bias=False)\n    (4): BatchNorm2d(168, eps=1e-05, momentum=0.1, affine=True, track_running_stats=True)\n    (5): ReLU6(inplace=True)\n    (6): Conv2d(168, 56, kernel_size=(1, 1), stride=(1, 1), bias=False)\n    (7): BatchNorm2d(56, eps=1e-05, momentum=0.1, affine=True, track_running_stats=True)\n  )\n)>(normal, oup=56)', '<bound method Module.type of InvertedResidual(\n  (conv): Sequential(\n    (0): Conv2d(56, 168, kernel_size=(1, 1), stride=(1, 1), bias=False)\n    (1): BatchNorm2d(168, eps=1e-05, momentum=0.1, affine=True, track_running_stats=True)\n    (2): ReLU6(inplace=True)\n    (3): Conv2d(168, 168, kernel_size=(7, 7), stride=(2, 2), padding=(3, 3), groups=168, bias=False)\n    (4): BatchNorm2d(168, eps=1e-05, momentum=0.1, affine=True, track_running_stats=True)\n    (5): ReLU6(inplace=True)\n    (6): Conv2d(168, 112, kernel_size=(1, 1), stride=(1, 1), bias=False)\n    (7): BatchNorm2d(112, eps=1e-05, momentum=0.1, affine=True, track_running_stats=True)\n  )\n)>(reduce, oup=112)', '<bound method Module.type of InvertedResidual(\n  (conv): Sequential(\n    (0): Conv2d(112, 336, kernel_size=(1, 1), stride=(1, 1), bias=False)\n    (1): BatchNorm2d(336, eps=1e-05, momentum=0.1, affine=True, track_running_stats=True)\n    (2): ReLU6(inplace=True)\n    (3): Conv2d(336, 336, kernel_size=(7, 7), stride=(1, 1), padding=(3, 3), groups=336, bias=False)\n    (4): BatchNorm2d(336, eps=1e-05, momentum=0.1, affine=True, track_running_stats=True)\n    (5): ReLU6(inplace=True)\n    (6): Conv2d(336, 112, kernel_size=(1, 1), stride=(1, 1), bias=False)\n    (7): BatchNorm2d(112, eps=1e-05, momentum=0.1, affine=True, track_running_stats=True)\n  )\n)>(normal, oup=112)', '<bound method Module.type of InvertedResidual(\n  (conv): Sequential(\n    (0): Conv2d(112, 336, kernel_size=(1, 1), stride=(1, 1), bias=False)\n    (1): BatchNorm2d(336, eps=1e-05, momentum=0.1, affine=True, track_running_stats=True)\n    (2): ReLU6(inplace=True)\n    (3): Conv2d(336, 336, kernel_size=(7, 7), stride=(1, 1), padding=(3, 3), groups=336, bias=False)\n    (4): BatchNorm2d(336, eps=1e-05, momentum=0.1, affine=True, track_running_stats=True)\n    (5): ReLU6(inplace=True)\n    (6): Conv2d(336, 112, kernel_size=(1, 1), stride=(1, 1), bias=False)\n    (7): BatchNorm2d(112, eps=1e-05, momentum=0.1, affine=True, track_running_stats=True)\n  )\n)>(normal, oup=112)', '<bound method Module.type of InvertedResidual(\n  (conv): Sequential(\n    (0): Conv2d(112, 672, kernel_size=(1, 1), stride=(1, 1), bias=False)\n    (1): BatchNorm2d(672, eps=1e-05, momentum=0.1, affine=True, track_running_stats=True)\n    (2): ReLU6(inplace=True)\n    (3): Conv2d(672, 672, kernel_size=(3, 3), stride=(1, 1), padding=(1, 1), groups=672, bias=False)\n    (4): BatchNorm2d(672, eps=1e-05, momentum=0.1, affine=True, track_running_stats=True)\n    (5): ReLU6(inplace=True)\n    (6): Conv2d(672, 128, kernel_size=(1, 1), stride=(1, 1), bias=False)\n    (7): BatchNorm2d(128, eps=1e-05, momentum=0.1, affine=True, track_running_stats=True)\n  )\n)>(normal, oup=128)', '<bound method Module.type of InvertedResidual(\n  (conv): Sequential(\n    (0): Conv2d(128, 384, kernel_size=(1, 1), stride=(1, 1), bias=False)\n    (1): BatchNorm2d(384, eps=1e-05, momentum=0.1, affine=True, track_running_stats=True)\n    (2): ReLU6(inplace=True)\n    (3): Conv2d(384, 384, kernel_size=(7, 7), stride=(1, 1), padding=(3, 3), groups=384, bias=False)\n    (4): BatchNorm2d(384, eps=1e-05, momentum=0.1, affine=True, track_running_stats=True)\n    (5): ReLU6(inplace=True)\n    (6): Conv2d(384, 128, kernel_size=(1, 1), stride=(1, 1), bias=False)\n    (7): BatchNorm2d(128, eps=1e-05, momentum=0.1, affine=True, track_running_stats=True)\n  )\n)>(normal, oup=128)', '<bound method Module.type of InvertedResidual(\n  (conv): Sequential(\n    (0): Conv2d(128, 384, kernel_size=(1, 1), stride=(1, 1), bias=False)\n    (1): BatchNorm2d(384, eps=1e-05, momentum=0.1, affine=True, track_running_stats=True)\n    (2): ReLU6(inplace=True)\n    (3): Conv2d(384, 384, kernel_size=(5, 5), stride=(1, 1), padding=(2, 2), groups=384, bias=False)\n    (4): BatchNorm2d(384, eps=1e-05, momentum=0.1, affine=True, track_running_stats=True)\n    (5): ReLU6(inplace=True)\n    (6): Conv2d(384, 128, kernel_size=(1, 1), stride=(1, 1), bias=False)\n    (7): BatchNorm2d(128, eps=1e-05, momentum=0.1, affine=True, track_running_stats=True)\n  )\n)>(normal, oup=128)', '<bound method Module.type of InvertedResidual(\n  (conv): Sequential(\n    (0): Conv2d(128, 384, kernel_size=(1, 1), stride=(1, 1), bias=False)\n    (1): BatchNorm2d(384, eps=1e-05, momentum=0.1, affine=True, track_running_stats=True)\n    (2): ReLU6(inplace=True)\n    (3): Conv2d(384, 384, kernel_size=(3, 3), stride=(1, 1), padding=(1, 1), groups=384, bias=False)\n    (4): BatchNorm2d(384, eps=1e-05, momentum=0.1, affine=True, track_running_stats=True)\n    (5): ReLU6(inplace=True)\n    (6): Conv2d(384, 128, kernel_size=(1, 1), stride=(1, 1), bias=False)\n    (7): BatchNorm2d(128, eps=1e-05, momentum=0.1, affine=True, track_running_stats=True)\n  )\n)>(normal, oup=128)', '<bound method Module.type of InvertedResidual(\n  (conv): Sequential(\n    (0): Conv2d(128, 384, kernel_size=(1, 1), stride=(1, 1), bias=False)\n    (1): BatchNorm2d(384, eps=1e-05, momentum=0.1, affine=True, track_running_stats=True)\n    (2): ReLU6(inplace=True)\n    (3): Conv2d(384, 384, kernel_size=(3, 3), stride=(2, 2), padding=(1, 1), groups=384, bias=False)\n    (4): BatchNorm2d(384, eps=1e-05, momentum=0.1, affine=True, track_running_stats=True)\n    (5): ReLU6(inplace=True)\n    (6): Conv2d(384, 256, kernel_size=(1, 1), stride=(1, 1), bias=False)\n    (7): BatchNorm2d(256, eps=1e-05, momentum=0.1, affine=True, track_running_stats=True)\n  )\n)>(reduce, oup=256)', '<bound method Module.type of InvertedResidual(\n  (conv): Sequential(\n    (0): Conv2d(256, 768, kernel_size=(1, 1), stride=(1, 1), bias=False)\n    (1): BatchNorm2d(768, eps=1e-05, momentum=0.1, affine=True, track_running_stats=True)\n    (2): ReLU6(inplace=True)\n    (3): Conv2d(768, 768, kernel_size=(7, 7), stride=(1, 1), padding=(3, 3), groups=768, bias=False)\n    (4): BatchNorm2d(768, eps=1e-05, momentum=0.1, affine=True, track_running_stats=True)\n    (5): ReLU6(inplace=True)\n    (6): Conv2d(768, 256, kernel_size=(1, 1), stride=(1, 1), bias=False)\n    (7): BatchNorm2d(256, eps=1e-05, momentum=0.1, affine=True, track_running_stats=True)\n  )\n)>(normal, oup=256)', '<bound method Module.type of InvertedResidual(\n  (conv): Sequential(\n    (0): Conv2d(256, 768, kernel_size=(1, 1), stride=(1, 1), bias=False)\n    (1): BatchNorm2d(768, eps=1e-05, momentum=0.1, affine=True, track_running_stats=True)\n    (2): ReLU6(inplace=True)\n    (3): Conv2d(768, 768, kernel_size=(3, 3), stride=(1, 1), padding=(1, 1), groups=768, bias=False)\n    (4): BatchNorm2d(768, eps=1e-05, momentum=0.1, affine=True, track_running_stats=True)\n    (5): ReLU6(inplace=True)\n    (6): Conv2d(768, 256, kernel_size=(1, 1), stride=(1, 1), bias=False)\n    (7): BatchNorm2d(256, eps=1e-05, momentum=0.1, affine=True, track_running_stats=True)\n  )\n)>(normal, oup=256)', '<bound method Module.type of InvertedResidual(\n  (conv): Sequential(\n    (0): Conv2d(256, 768, kernel_size=(1, 1), stride=(1, 1), bias=False)\n    (1): BatchNorm2d(768, eps=1e-05, momentum=0.1, affine=True, track_running_stats=True)\n    (2): ReLU6(inplace=True)\n    (3): Conv2d(768, 768, kernel_size=(5, 5), stride=(1, 1), padding=(2, 2), groups=768, bias=False)\n    (4): BatchNorm2d(768, eps=1e-05, momentum=0.1, affine=True, track_running_stats=True)\n    (5): ReLU6(inplace=True)\n    (6): Conv2d(768, 256, kernel_size=(1, 1), stride=(1, 1), bias=False)\n    (7): BatchNorm2d(256, eps=1e-05, momentum=0.1, affine=True, track_running_stats=True)\n  )\n)>(normal, oup=256)', '<bound method Module.type of InvertedResidual(\n  (conv): Sequential(\n    (0): Conv2d(256, 768, kernel_size=(1, 1), stride=(1, 1), bias=False)\n    (1): BatchNorm2d(768, eps=1e-05, momentum=0.1, affine=True, track_running_stats=True)\n    (2): ReLU6(inplace=True)\n    (3): Conv2d(768, 768, kernel_size=(5, 5), stride=(1, 1), padding=(2, 2), groups=768, bias=False)\n    (4): BatchNorm2d(768, eps=1e-05, momentum=0.1, affine=True, track_running_stats=True)\n    (5): ReLU6(inplace=True)\n    (6): Conv2d(768, 432, kernel_size=(1, 1), stride=(1, 1), bias=False)\n    (7): BatchNorm2d(432, eps=1e-05, momentum=0.1, affine=True, track_running_stats=True)\n  )\n)>(normal, oup=432)']
2021-12-13 14:35:20,736 rngs:[3, -1, 0, 4, 0, -1, -1, 0, 4, -1, 4, 4, 1, 4, 2, 0, 0, 4, 0, 2, 2], arch:['<bound method Module.type of InvertedResidual(\n  (conv): Sequential(\n    (0): Conv2d(24, 144, kernel_size=(1, 1), stride=(1, 1), bias=False)\n    (1): BatchNorm2d(144, eps=1e-05, momentum=0.1, affine=True, track_running_stats=True)\n    (2): ReLU6(inplace=True)\n    (3): Conv2d(144, 144, kernel_size=(5, 5), stride=(2, 2), padding=(2, 2), groups=144, bias=False)\n    (4): BatchNorm2d(144, eps=1e-05, momentum=0.1, affine=True, track_running_stats=True)\n    (5): ReLU6(inplace=True)\n    (6): Conv2d(144, 32, kernel_size=(1, 1), stride=(1, 1), bias=False)\n    (7): BatchNorm2d(32, eps=1e-05, momentum=0.1, affine=True, track_running_stats=True)\n  )\n)>(reduce, oup=32)', '<bound method Module.type of InvertedResidual(\n  (conv): Sequential(\n    (0): Conv2d(32, 96, kernel_size=(1, 1), stride=(1, 1), bias=False)\n    (1): BatchNorm2d(96, eps=1e-05, momentum=0.1, affine=True, track_running_stats=True)\n    (2): ReLU6(inplace=True)\n    (3): Conv2d(96, 96, kernel_size=(3, 3), stride=(1, 1), padding=(1, 1), groups=96, bias=False)\n    (4): BatchNorm2d(96, eps=1e-05, momentum=0.1, affine=True, track_running_stats=True)\n    (5): ReLU6(inplace=True)\n    (6): Conv2d(96, 32, kernel_size=(1, 1), stride=(1, 1), bias=False)\n    (7): BatchNorm2d(32, eps=1e-05, momentum=0.1, affine=True, track_running_stats=True)\n  )\n)>(normal, oup=32)', '<bound method Module.type of InvertedResidual(\n  (conv): Sequential(\n    (0): Conv2d(32, 96, kernel_size=(1, 1), stride=(1, 1), bias=False)\n    (1): BatchNorm2d(96, eps=1e-05, momentum=0.1, affine=True, track_running_stats=True)\n    (2): ReLU6(inplace=True)\n    (3): Conv2d(96, 96, kernel_size=(7, 7), stride=(1, 1), padding=(3, 3), groups=96, bias=False)\n    (4): BatchNorm2d(96, eps=1e-05, momentum=0.1, affine=True, track_running_stats=True)\n    (5): ReLU6(inplace=True)\n    (6): Conv2d(96, 32, kernel_size=(1, 1), stride=(1, 1), bias=False)\n    (7): BatchNorm2d(32, eps=1e-05, momentum=0.1, affine=True, track_running_stats=True)\n  )\n)>(normal, oup=32)', '<bound method Module.type of InvertedResidual(\n  (conv): Sequential(\n    (0): Conv2d(32, 96, kernel_size=(1, 1), stride=(1, 1), bias=False)\n    (1): BatchNorm2d(96, eps=1e-05, momentum=0.1, affine=True, track_running_stats=True)\n    (2): ReLU6(inplace=True)\n    (3): Conv2d(96, 96, kernel_size=(3, 3), stride=(2, 2), padding=(1, 1), groups=96, bias=False)\n    (4): BatchNorm2d(96, eps=1e-05, momentum=0.1, affine=True, track_running_stats=True)\n    (5): ReLU6(inplace=True)\n    (6): Conv2d(96, 56, kernel_size=(1, 1), stride=(1, 1), bias=False)\n    (7): BatchNorm2d(56, eps=1e-05, momentum=0.1, affine=True, track_running_stats=True)\n  )\n)>(reduce, oup=56)', '<bound method Module.type of InvertedResidual(\n  (conv): Sequential(\n    (0): Conv2d(56, 168, kernel_size=(1, 1), stride=(1, 1), bias=False)\n    (1): BatchNorm2d(168, eps=1e-05, momentum=0.1, affine=True, track_running_stats=True)\n    (2): ReLU6(inplace=True)\n    (3): Conv2d(168, 168, kernel_size=(3, 3), stride=(1, 1), padding=(1, 1), groups=168, bias=False)\n    (4): BatchNorm2d(168, eps=1e-05, momentum=0.1, affine=True, track_running_stats=True)\n    (5): ReLU6(inplace=True)\n    (6): Conv2d(168, 56, kernel_size=(1, 1), stride=(1, 1), bias=False)\n    (7): BatchNorm2d(56, eps=1e-05, momentum=0.1, affine=True, track_running_stats=True)\n  )\n)>(normal, oup=56)', '<bound method Module.type of InvertedResidual(\n  (conv): Sequential(\n    (0): Conv2d(56, 168, kernel_size=(1, 1), stride=(1, 1), bias=False)\n    (1): BatchNorm2d(168, eps=1e-05, momentum=0.1, affine=True, track_running_stats=True)\n    (2): ReLU6(inplace=True)\n    (3): Conv2d(168, 168, kernel_size=(7, 7), stride=(2, 2), padding=(3, 3), groups=168, bias=False)\n    (4): BatchNorm2d(168, eps=1e-05, momentum=0.1, affine=True, track_running_stats=True)\n    (5): ReLU6(inplace=True)\n    (6): Conv2d(168, 112, kernel_size=(1, 1), stride=(1, 1), bias=False)\n    (7): BatchNorm2d(112, eps=1e-05, momentum=0.1, affine=True, track_running_stats=True)\n  )\n)>(reduce, oup=112)', '<bound method Module.type of InvertedResidual(\n  (conv): Sequential(\n    (0): Conv2d(112, 336, kernel_size=(1, 1), stride=(1, 1), bias=False)\n    (1): BatchNorm2d(336, eps=1e-05, momentum=0.1, affine=True, track_running_stats=True)\n    (2): ReLU6(inplace=True)\n    (3): Conv2d(336, 336, kernel_size=(7, 7), stride=(1, 1), padding=(3, 3), groups=336, bias=False)\n    (4): BatchNorm2d(336, eps=1e-05, momentum=0.1, affine=True, track_running_stats=True)\n    (5): ReLU6(inplace=True)\n    (6): Conv2d(336, 112, kernel_size=(1, 1), stride=(1, 1), bias=False)\n    (7): BatchNorm2d(112, eps=1e-05, momentum=0.1, affine=True, track_running_stats=True)\n  )\n)>(normal, oup=112)', '<bound method Module.type of InvertedResidual(\n  (conv): Sequential(\n    (0): Conv2d(112, 336, kernel_size=(1, 1), stride=(1, 1), bias=False)\n    (1): BatchNorm2d(336, eps=1e-05, momentum=0.1, affine=True, track_running_stats=True)\n    (2): ReLU6(inplace=True)\n    (3): Conv2d(336, 336, kernel_size=(7, 7), stride=(1, 1), padding=(3, 3), groups=336, bias=False)\n    (4): BatchNorm2d(336, eps=1e-05, momentum=0.1, affine=True, track_running_stats=True)\n    (5): ReLU6(inplace=True)\n    (6): Conv2d(336, 112, kernel_size=(1, 1), stride=(1, 1), bias=False)\n    (7): BatchNorm2d(112, eps=1e-05, momentum=0.1, affine=True, track_running_stats=True)\n  )\n)>(normal, oup=112)', '<bound method Module.type of InvertedResidual(\n  (conv): Sequential(\n    (0): Conv2d(112, 672, kernel_size=(1, 1), stride=(1, 1), bias=False)\n    (1): BatchNorm2d(672, eps=1e-05, momentum=0.1, affine=True, track_running_stats=True)\n    (2): ReLU6(inplace=True)\n    (3): Conv2d(672, 672, kernel_size=(3, 3), stride=(1, 1), padding=(1, 1), groups=672, bias=False)\n    (4): BatchNorm2d(672, eps=1e-05, momentum=0.1, affine=True, track_running_stats=True)\n    (5): ReLU6(inplace=True)\n    (6): Conv2d(672, 128, kernel_size=(1, 1), stride=(1, 1), bias=False)\n    (7): BatchNorm2d(128, eps=1e-05, momentum=0.1, affine=True, track_running_stats=True)\n  )\n)>(normal, oup=128)', '<bound method Module.type of InvertedResidual(\n  (conv): Sequential(\n    (0): Conv2d(128, 384, kernel_size=(1, 1), stride=(1, 1), bias=False)\n    (1): BatchNorm2d(384, eps=1e-05, momentum=0.1, affine=True, track_running_stats=True)\n    (2): ReLU6(inplace=True)\n    (3): Conv2d(384, 384, kernel_size=(7, 7), stride=(1, 1), padding=(3, 3), groups=384, bias=False)\n    (4): BatchNorm2d(384, eps=1e-05, momentum=0.1, affine=True, track_running_stats=True)\n    (5): ReLU6(inplace=True)\n    (6): Conv2d(384, 128, kernel_size=(1, 1), stride=(1, 1), bias=False)\n    (7): BatchNorm2d(128, eps=1e-05, momentum=0.1, affine=True, track_running_stats=True)\n  )\n)>(normal, oup=128)', '<bound method Module.type of InvertedResidual(\n  (conv): Sequential(\n    (0): Conv2d(128, 384, kernel_size=(1, 1), stride=(1, 1), bias=False)\n    (1): BatchNorm2d(384, eps=1e-05, momentum=0.1, affine=True, track_running_stats=True)\n    (2): ReLU6(inplace=True)\n    (3): Conv2d(384, 384, kernel_size=(5, 5), stride=(1, 1), padding=(2, 2), groups=384, bias=False)\n    (4): BatchNorm2d(384, eps=1e-05, momentum=0.1, affine=True, track_running_stats=True)\n    (5): ReLU6(inplace=True)\n    (6): Conv2d(384, 128, kernel_size=(1, 1), stride=(1, 1), bias=False)\n    (7): BatchNorm2d(128, eps=1e-05, momentum=0.1, affine=True, track_running_stats=True)\n  )\n)>(normal, oup=128)', '<bound method Module.type of InvertedResidual(\n  (conv): Sequential(\n    (0): Conv2d(128, 384, kernel_size=(1, 1), stride=(1, 1), bias=False)\n    (1): BatchNorm2d(384, eps=1e-05, momentum=0.1, affine=True, track_running_stats=True)\n    (2): ReLU6(inplace=True)\n    (3): Conv2d(384, 384, kernel_size=(3, 3), stride=(1, 1), padding=(1, 1), groups=384, bias=False)\n    (4): BatchNorm2d(384, eps=1e-05, momentum=0.1, affine=True, track_running_stats=True)\n    (5): ReLU6(inplace=True)\n    (6): Conv2d(384, 128, kernel_size=(1, 1), stride=(1, 1), bias=False)\n    (7): BatchNorm2d(128, eps=1e-05, momentum=0.1, affine=True, track_running_stats=True)\n  )\n)>(normal, oup=128)', '<bound method Module.type of InvertedResidual(\n  (conv): Sequential(\n    (0): Conv2d(128, 384, kernel_size=(1, 1), stride=(1, 1), bias=False)\n    (1): BatchNorm2d(384, eps=1e-05, momentum=0.1, affine=True, track_running_stats=True)\n    (2): ReLU6(inplace=True)\n    (3): Conv2d(384, 384, kernel_size=(3, 3), stride=(2, 2), padding=(1, 1), groups=384, bias=False)\n    (4): BatchNorm2d(384, eps=1e-05, momentum=0.1, affine=True, track_running_stats=True)\n    (5): ReLU6(inplace=True)\n    (6): Conv2d(384, 256, kernel_size=(1, 1), stride=(1, 1), bias=False)\n    (7): BatchNorm2d(256, eps=1e-05, momentum=0.1, affine=True, track_running_stats=True)\n  )\n)>(reduce, oup=256)', '<bound method Module.type of InvertedResidual(\n  (conv): Sequential(\n    (0): Conv2d(256, 768, kernel_size=(1, 1), stride=(1, 1), bias=False)\n    (1): BatchNorm2d(768, eps=1e-05, momentum=0.1, affine=True, track_running_stats=True)\n    (2): ReLU6(inplace=True)\n    (3): Conv2d(768, 768, kernel_size=(7, 7), stride=(1, 1), padding=(3, 3), groups=768, bias=False)\n    (4): BatchNorm2d(768, eps=1e-05, momentum=0.1, affine=True, track_running_stats=True)\n    (5): ReLU6(inplace=True)\n    (6): Conv2d(768, 256, kernel_size=(1, 1), stride=(1, 1), bias=False)\n    (7): BatchNorm2d(256, eps=1e-05, momentum=0.1, affine=True, track_running_stats=True)\n  )\n)>(normal, oup=256)', '<bound method Module.type of InvertedResidual(\n  (conv): Sequential(\n    (0): Conv2d(256, 768, kernel_size=(1, 1), stride=(1, 1), bias=False)\n    (1): BatchNorm2d(768, eps=1e-05, momentum=0.1, affine=True, track_running_stats=True)\n    (2): ReLU6(inplace=True)\n    (3): Conv2d(768, 768, kernel_size=(3, 3), stride=(1, 1), padding=(1, 1), groups=768, bias=False)\n    (4): BatchNorm2d(768, eps=1e-05, momentum=0.1, affine=True, track_running_stats=True)\n    (5): ReLU6(inplace=True)\n    (6): Conv2d(768, 256, kernel_size=(1, 1), stride=(1, 1), bias=False)\n    (7): BatchNorm2d(256, eps=1e-05, momentum=0.1, affine=True, track_running_stats=True)\n  )\n)>(normal, oup=256)', '<bound method Module.type of InvertedResidual(\n  (conv): Sequential(\n    (0): Conv2d(256, 768, kernel_size=(1, 1), stride=(1, 1), bias=False)\n    (1): BatchNorm2d(768, eps=1e-05, momentum=0.1, affine=True, track_running_stats=True)\n    (2): ReLU6(inplace=True)\n    (3): Conv2d(768, 768, kernel_size=(5, 5), stride=(1, 1), padding=(2, 2), groups=768, bias=False)\n    (4): BatchNorm2d(768, eps=1e-05, momentum=0.1, affine=True, track_running_stats=True)\n    (5): ReLU6(inplace=True)\n    (6): Conv2d(768, 256, kernel_size=(1, 1), stride=(1, 1), bias=False)\n    (7): BatchNorm2d(256, eps=1e-05, momentum=0.1, affine=True, track_running_stats=True)\n  )\n)>(normal, oup=256)', '<bound method Module.type of InvertedResidual(\n  (conv): Sequential(\n    (0): Conv2d(256, 768, kernel_size=(1, 1), stride=(1, 1), bias=False)\n    (1): BatchNorm2d(768, eps=1e-05, momentum=0.1, affine=True, track_running_stats=True)\n    (2): ReLU6(inplace=True)\n    (3): Conv2d(768, 768, kernel_size=(5, 5), stride=(1, 1), padding=(2, 2), groups=768, bias=False)\n    (4): BatchNorm2d(768, eps=1e-05, momentum=0.1, affine=True, track_running_stats=True)\n    (5): ReLU6(inplace=True)\n    (6): Conv2d(768, 432, kernel_size=(1, 1), stride=(1, 1), bias=False)\n    (7): BatchNorm2d(432, eps=1e-05, momentum=0.1, affine=True, track_running_stats=True)\n  )\n)>(normal, oup=432)']
2021-12-13 14:35:21,055 flops = 473.549240MB, param size = 5.228536MB
2021-12-13 14:35:21,055 flops = 473.549240MB, param size = 5.228536MB
2021-12-13 14:35:21,055 flops = 473.549240MB, param size = 5.228536MB
2021-12-13 14:35:21,055 flops = 473.549240MB, param size = 5.228536MB
2021-12-13 14:35:21,055 flops = 473.549240MB, param size = 5.228536MB
…
